chapter_02_nn_basics_mlp/models/mlp_standard.pth (torch, 3320 bytes, 3 tensors)

mlp_net.0.weight f4 [100, 1]
00000000: 3ab8 2f3f f10f 363f ea15 5dbe 9398 643f
00000010: 9732 2ebe 38a2 4e3e 6532 12bf c641 fe3e
00000020: 8464 283f b0a9 24bf aa21 633f 14f1 383e
00000030: e35c 343f 50ae 0a3e 6d68 0c3f 0e9b 66be
00000040: 677a 3e3f 385b 173e 5274 dabe 4f39 513e
00000050: 5964 eebe c02c f0bd d59b babe 8b3c 0e3f
00000060: ac56 3ebf 43fe e2be f382 a2be 78dc 10bf
00000070: 551c 1e3d f913 6dbf c55a 5a3f a047 5ebf
00000080: beb6 3e3f de36 283e 4555 96be e19b 153f
00000090: 5897 1f3e a7f6 363f 4a85 5b3d d7ab b5be
000000a0: dde3 823e 2131 58be cf84 7d3e ddac 4b3f
000000b0: 7568 e23e d7f5 abbe 6e13 003f c944 1e3e
000000c0: 820d c83e d5a7 1cbf 6fe2 7fbf 760a b3be
000000d0: d36e 30bf 85c2 373f 8f9d 2f3e 6c3f f43e
000000e0: 3b0b a93e 98b2 8bbd 880c 413f 6f6e 33bf
000000f0: d999 6e3d c716 36bf 9d29 9f3e 5c42 71be
00000100: 56c5 983e 0814 66be 8d0a 233f 147b f9be
00000110: 0cc6 23bf 099d 0ebf c6f3 603f b3b9 983e
00000120: 17f8 763f 366c 39bf b969 81bf c5bf 44bf
00000130: f318 20bf 829d bb3e 657b cc3e 5d8b 323f
00000140: da3b b9be 794b 15bf 2a7a c83e a696 babe
00000150: a539 013f db6f 89be 79c7 073f 7bb5 45bf
00000160: a3f9 ebbe de8d 303e 273b 573d 1353 92be
00000170: 5176 0b3f 61e3 1c3f b766 37bf 611c edbe
00000180: 2ff2 593f 2961 69be 5ab3 84be b776 75bf
0.6864048 0.71118075 -0.21590391 0.8929531 -0.17011486 0.20179069 -0.57108146 0.49659556
0.65778375 -0.6432142 0.8872324 0.18060714 0.70454234 0.13543057 0.5484684 -0.22520086
0.7440552 0.14780891 -0.4266687 0.20432018 -0.46560934 -0.117272854 -0.36447015 0.5556113
-0.74351 -0.4433461 -0.3174053 -0.5658641 0.03860124 -0.926086 0.85294753 -0.8682804
0.7449759 0.1642718 -0.2936193 0.5844098 0.15585077 0.7147011 0.05359391 -0.35482666
0.2556447 -0.21112491 0.24757694 0.79560643 0.4422032 -0.33585998 0.5002965 0.15455927
0.39072806 -0.6119359 -0.99954885 -0.3496892 -0.68919104 0.7178119 0.17149948 0.47704637
0.3301638 -0.068211734 0.75409746 -0.70090383 0.05825219 -0.71128505 0.31086436 -0.2356047
0.29838055 -0.22468579 0.63687974 -0.48726714 -0.6397407 -0.55708367 0.8787197 0.29829177
0.96472305 -0.7243074 -1.0110389 -0.7685512 -0.6253807 0.36643606 0.39937893 0.697439
-0.36178476 -0.5831829 0.39155704 -0.3644306 0.50478584 -0.2684315 0.53038746 -0.7723004
-0.46088895 0.17241618 0.052546646 -0.28579006 0.5447741 0.6128445 -0.71641105 -0.46310714
0.8513517 -0.2279097 -0.25918084 -0.9588427

mlp_net.0.bias f4 [100]
00000000: 14f2 44bf 5089 663e 8891 15bf 4931 33bf
00000010: 9150 b93e 6ede 2ebf a597 c5bf ab1d 4abf
00000020: 6e49 b3bf b245 83bf 7a7d 863f 7d3d 783e
00000030: 8e27 6f3e 66c4 6ebf d2b3 95bf e8df e2be
00000040: c670 d83d 8642 61bf 8d04 3fbf e1ae 26bf
00000050: ad61 4b3e 5084 bebe 8fe0 1e3e 23bf 97bf
00000060: db37 0abf 06d6 5fbf a3b4 5bbf 48dd 8ebf
00000070: ce91 3e3f 21d7 d0bd 327e 443f be11 5c3c
00000080: 3dc3 55bf 7b87 3b3f de1f 34bf a8b0 b9be
00000090: 807f 54bf f537 a3bf f18f 553e f982 efbd
000000a0: 31e7 e43e aa76 61bf dc51 2b3f bc96 77bf
000000b0: 7726 b6be 66ee e03e 2189 e63e b5fe 533f
000000c0: 0562 453f b325 89bf c93a da3e 3fdc d4be
000000d0: 4ee8 333c 8c0c 81bf 8a5c 423f b80d 82bf
000000e0: e5df 133f 6fa8 893e 4fc2 c73e 9ea2 54bf
000000f0: 003f 723f f80d eb3e 0146 4e3e e84a 7dbf
00000100: 9b89 f33e ab42 1bbf 78dc 36bf 74d6 843f
00000110: 8b06 d33e 3be6 c9be 3367 eabe 008b 45be
00000120: 26da 1f3f 5fe3 c1be 5fa5 27bf c627 dfbd
00000130: 32bc 3dbf 072e de3e 65bc 493f 513a 9fbf
00000140: bc5f f23e 3b70 353f f21c 643d 0476 72be
00000150: c718 d03e 5e5b 123f 1cfe 953e 6b68 e0bd
00000160: a9df 0bbf f32e 39bb fc57 a7be 5d27 46bf
00000170: 5f1a 0f3f 22aa 483f 23cb cfbd c378 87bd
00000180: 79e5 32be 74a7 103e 294d 0d3f bb68 d13e
-0.7693188 0.22513318 -0.5842519 -0.6999708 0.3619428 -0.6830815 -1.5436903 -0.7895152
-1.4006784 -1.0255644 1.0507042 0.24242206 0.23354933 -0.9326843 -1.1695502 -0.44311452
0.10568385 -0.8799213 -0.7461632 -0.65110594 0.19861479 -0.3721032 0.1551535 -1.1855205
-0.5399148 -0.8743595 -0.85822505 -1.116128 0.7444123 -0.101972826 0.7675506 0.013431964
-0.83501035 0.732536 -0.70361125 -0.3626759 -0.8300705 -1.2751452 0.2085569 -0.11694903
0.44707635 -0.8807169 0.6692178 -0.9671438 -0.3557622 0.43931884 0.45026496 0.8281053
0.7710269 -1.071463 0.42622975 -0.41574284 0.010980679 -1.0081954 0.75922453 -1.0160437
0.5776351 0.26886317 0.39015433 -0.83060634 0.9462738 0.45909095 0.20143892 -0.9894242
0.47565922 -0.606486 -0.7143016 1.0377946 0.4121593 -0.39433464 -0.4578186 -0.19291306
0.62442243 -0.37868783 -0.6548671 -0.10896258 -0.7411529 0.4339449 0.7880309 -1.2439672
0.47338665 0.70874375 0.055691667 -0.23677832 0.40643904 0.57170665 0.29295433 -0.10957416
-0.54638153 -0.0028256744 -0.32684314 -0.77403814 0.55899614 0.783846 -0.10146167 -0.0661483
-0.1747035 0.14126378 0.5519586 0.40900216

mlp_net.2.weight f4 [1, 100]
00000000: f9e1 f3bd c57d 80bc a06a aa3e 0706 95bc
00000010: 26c1 cfbd 40f3 76bd 02c4 ef3e b6ef 1ebe
00000020: 5086 0ebe d222 433e 4368 ea3d e2a0 a83d
00000030: 9bf5 96bd 6d51 76bd 59ac 71be be9d 943e
00000040: 8780 333d 1a26 d4bc 4679 463e fd36 92bb
00000050: e67e eebd 1d7b 953d 1e6d 8dbd 6193 1abe
00000060: aaf9 843c 567e 7a3e 1c80 e63e ee9f 643e
00000070: 3a90 18bc a27c 3bbd a98e 41bd 9cf0 c23d
00000080: 1f8a b9bc 036c 003e b368 723e 3282 80bc
00000090: cd5a 80ba 2115 47be b2f1 e5bc 55bc efbd
000000a0: ab94 b03d 037a 333c d9fa 143d 5d31 cfbd
000000b0: 806b 14bd 41bd 02be fccd f9bc 9c8a 9a3d
000000c0: 845b b83c 208c 873e adba e1bd 4ebe bf3d
000000d0: 278f 583d 4015 e3bd bbe9 833c ef7a f1be
000000e0: 981c d53d bdcc 923c fe13 8c3d 9314 453e
000000f0: 7bdf f63d 5203 37be fc5a d53d aca3 823d
00000100: 1a66 ad3d 16f2 cc3e 046a 0cbd 57c5 fcbd
00000110: aefa 01be 523e 163d e277 e03c 5d7c d1bd
00000120: 9990 d13d 496d 9d3c 205f 363e 9dcb 653d
00000130: 159f d13d 855e 853d 23d8 d23d 3d04 41be
00000140: 9384 9cbd d813 01be e9a4 c13c 61e3 6b3d
00000150: 6f2e b03b 81cb fabd 5d2b 89bd 5aea c53d
00000160: e850 3b3e a380 b13c 12d4 f5bb 032c 913e
00000170: d155 5bbd 4236 3bbd 8ee6 903d 801f c33c
00000180: 6cb7 4abd 698b 2dbd dbb4 19be 725d cdbd
-0.11908335 -0.015684972 0.33284473 -0.01819135 -0.10144262 -0.060290575 0.4682923 -0.1552113
-0.13918424 0.19056252 0.114456676 0.08233811 -0.07371064 -0.060136247 -0.23600902 0.29026598
0.043823745 -0.025897074 0.193822 -0.0044621215 -0.11645298 0.072988726 -0.06905578 -0.15095283
0.01623233 0.24462256 0.45019615 0.22326633 -0.00931173 -0.045773156 -0.047255192 0.09518549
-0.02264887 0.12541203 0.23672752 -0.015687082 -0.0009792686 -0.19441654 -0.02806935 -0.11705843
0.08622106 0.010954383 0.03637204 -0.10116837 -0.036235332 -0.12767507 -0.030493729 0.07545969
0.022504576 0.26474094 -0.11021934 0.093624696 0.052870896 -0.110880375 0.016102662 -0.47164103
0.104058444 0.017919892 0.06839751 0.1924613 0.12054344 -0.1787236 0.104177445 0.06378874
0.0846674 0.40028447 -0.034280792 -0.12342327 -0.12693283 0.036680527 0.027400915 -0.102287985
0.10232658 0.01921715 0.17809725 0.056102384 0.102354206 0.06512169 0.10295131 -0.18849273
-0.07642474 -0.12605226 0.023638206 0.057589892 0.005376629 -0.122458465 -0.06697724 0.0966384
0.18292582 0.021667784 -0.0075020874 0.2835389 -0.053548638 -0.04570604 0.07075225 0.023818731
-0.04949133 -0.04236928 -0.15010397 -0.10027589
