chapter_02_nn_basics_mlp/models/mlp_extrapolate.pth (torch, 3344 bytes, 3 tensors)

mlp_net.0.weight f4 [100, 1]
0	0x3f43b8cc	0.7645385
1	0x4018e1bb	2.3887775
2	0xbe3a8291	-0.1821387
3	0x3f6b2a1c	0.9186113
4	0xbd0babce	-0.034099393
5	0x3e4ea238	0.20179069
6	0xbf025c8b	-0.5092246
7	0x3f165828	0.58728266
8	0x3f61accc	0.8815429
9	0xbf397927	-0.7245049
10	0x3f380b49	0.7189222
11	0x3e187002	0.14886478
12	0x3f6950c7	0.9113888
13	0x3e0aae50	0.13543057
14	0x3ef6e15c	0.4821881
15	0xbe849499	-0.2589462
16	0x3fbd92f2	1.4810469
17	0x3e175b38	0.14780891
18	0xbeda18ef	-0.42597148
19	0x3e828208	0.2548983
20	0xbed72d74	-0.42026865
21	0xbdf02cc0	-0.117272854
22	0xbeb0a4cc	-0.3450073
23	0x3f29d2ae	0.66337097
24	0xbf446001	-0.7670899
25	0xbedcb602	-0.4310761
26	0xbe8c4135	-0.273935
27	0xbf0e20a7	-0.55518574
28	0x3de48d8e	0.11159812
29	0xbf768610	-0.96298313
30	0x3f4539ad	0.7704113
31	0xbf4a6c39	-0.79071385
32	0x3f45a396	0.7720274
33	0x3e5127e3	0.20425372
34	0xbe970e41	-0.29503062
35	0x3f1e31f8	0.61794996
36	0x3e1f9758	0.15585077
37	0x3f4ed6b0	0.8079634
38	0x3db8c44a	0.09021814
39	0xbe9778c8	-0.29584336
40	0x3e645c96	0.22300944
41	0xbe58310f	-0.21112464
42	0x3e7ad92d	0.24496908
43	0x3f648ffe	0.89282215
44	0x3f13fbb6	0.57805955
45	0xbecf7513	-0.40519008
46	0x3e917065	0.28406063
47	0x3e6e73ad	0.23286314
48	0x3e9e8abc	0.3096522
49	0xbf1b566f	-0.6067876
50	0xbf6b3ff6	-0.9189447
51	0xbeb17a9f	-0.34663865
52	0xbf1b21d3	-0.60598487
53	0x3f520ed6	0.8205389
54	0x3e9c635c	0.30544555
55	0x3ed413cc	0.41421354
56	0x3ea95c3b	0.3307818
57	0x3b991eac	0.004672846
58	0x3f010b62	0.50407994
59	0xbf3000be	-0.6875113
60	0x3dfb3e32	0.12267722
61	0xbf2706f6	-0.65244997
62	0x3e308b14	0.17240554
63	0xbe74ef14	-0.23919326
64	0x3e7a5c83	0.24449353
65	0xbe3b0205	-0.18262489
66	0x3f545306	0.82939184
67	0xbeeab202	-0.45838934
68	0xbf028ff0	-0.5100088
69	0xbf0f47e1	-0.55969054
70	0x3f6641e2	0.8994428
71	0x3eaa9fe4	0.33325112
72	0x3f2cf7f9	0.67565876
73	0xbf52320a	-0.82107604
74	0xbf740845	-0.9532512
75	0xbf25e75d	-0.6480616
76	0xbf22f556	-0.636556
77	0x3e827795	0.2548186
78	0x3ee1ee18	0.44126964
79	0x3f54b776	0.8309244
80	0xbedd52e8	-0.43227315
81	0xbf2595d5	-0.6468175
82	0x3e402a37	0.18766104
83	0xbeb6576b	-0.3561357
84	0x3ea1894f	0.3155007
85	0xbe428071	-0.18994309
86	0x3ff4416a	1.9082463
87	0xbf405957	-0.7513632
88	0xbefe2dc8	-0.49644303
89	0x3e11249d	0.14174123
90	0x3e587b38	0.21140754
91	0xbe4f6c9b	-0.20256273
92	0x3ead7657	0.3387935
93	0x3f01c4e9	0.50691086
94	0xbf28dfd9	-0.65966564
95	0xbef9c4c3	-0.4878293
96	0x3f799600	0.97494507
97	0xbe150232	-0.14551619
98	0xbe97396d	-0.29536
99	0xbf65f826	-0.8983177

mlp_net.0.bias f4 [100]
0	0xbf129a84	-0.5726702
1	0x3d77e0c7	0.0605171
2	0xbe7abd80	-0.24486351
3	0xbf39d3aa	-0.725886
4	0xbd00d48f	-0.03145271
5	0xbf2ede6e	-0.6830815
6	0xbf77381e	-0.96570003
7	0xbf0cf83a	-0.55066264
8	0xbf600de6	-0.8752121
9	0xbf49b943	-0.7879831
10	0x3f8fc0e6	1.1230743
11	0x3e901485	0.28140655
12	0xbb247b6f	-0.0025097986
13	0xbf6ec466	-0.9326843
14	0xbf282254	-0.6567738
15	0xbf413d14	-0.7548382
16	0x3eee8640	0.465868
17	0xbf614286	-0.8799213
18	0xbf2a4cfa	-0.66523707
19	0xbf194258	-0.5986686
20	0x3d8f6374	0.07001391
21	0xbebe8450	-0.3721032
22	0xbc32dcfa	-0.010916943
23	0xbf2d7924	-0.6776297
24	0xbf0f10be	-0.5588492
25	0xbf416726	-0.7554802
26	0xbf3360be	-0.7006949
27	0xbf820c4f	-1.0160006
28	0x3f748837	0.9552035
29	0xbd78e845	-0.060768384
30	0x3f509ae9	0.81486374
31	0x3e1e930c	0.15485781
32	0xbf58c7b0	-0.846797
33	0x3f24ab56	0.6432394
34	0xbef814ca	-0.4845336
35	0xbec44350	-0.38332605
36	0xbf547f80	-0.8300705
37	0xbf7e8150	-0.99416065
38	0x3edb7825	0.428651
39	0xbdbfe20e	-0.093692884
40	0x3f11fccb	0.57026356
41	0xbf6176b4	-0.8807175
42	0x3f816b72	1.0110915
43	0xbf3beaf2	-0.73405373
44	0xbe30d148	-0.17267334
45	0x3e94f780	0.29095078
46	0x3f3a189a	0.7269379
47	0x3f5701c4	0.8398707
48	0x3f984570	1.1896191
49	0xbf7f089a	-0.996225
50	0x3e972ed9	0.2952793
51	0xbec0d587	-0.37662908
52	0xbd2dd582	-0.042439945
53	0xbf3f9d0c	-0.7484901
54	0x3f85f02c	1.046392
55	0xbf3be42e	-0.7339505
56	0x3f045157	0.51686615
57	0x3eeaa352	0.4582773
58	0x3ef4185b	0.47674832
59	0xbf2e131e	-0.6799792
60	0x3f51ba8c	0.8192527
61	0x3e9a855b	0.30179867
62	0x3f00a0fa	0.5024563
63	0xbf7c629b	-0.9858796
64	0x3f192340	0.5981941
65	0xbeb1085a	-0.34576684
66	0xbeea8f44	-0.45812428
67	0x3f5de76e	0.8668126
68	0x3e82daf3	0.2555767
69	0xbeefc78f	-0.4683194
70	0xbf019252	-0.5061389
71	0xbd439b80	-0.04775572
72	0x3f3c1f67	0.73485416
73	0xbec03979	-0.37543848
74	0xbf48b937	-0.78407615
75	0xbe6875b8	-0.22701156
76	0xbf314331	-0.6924315
77	0x3f1f330c	0.62187266
78	0x3f30a5a3	0.6900274
79	0xbf71023c	-0.94144034
80	0x3e89c54e	0.26908344
81	0x3f197996	0.5995115
82	0x3f0bed83	0.5465929
83	0xbe985768	-0.29754186
84	0x3f4590c2	0.7717401
85	0x3f1c7274	0.6111214
86	0x3f03910e	0.5139321
87	0xbeafdde3	-0.34348974
88	0xbed137c6	-0.40862864
89	0x3e62570b	0.22103517
90	0xbe34e4d0	-0.1766541
91	0xbea1e604	-0.316208
92	0x3f544380	0.82915497
93	0x3f6f8ace	0.93571174
94	0xbe3871ef	-0.18012212
95	0xbe1e26c0	-0.1544447
96	0xbd8d567e	-0.06901263
97	0xbd899302	-0.06717493
98	0x3e9b3155	0.30311075
99	0x3ea71cb0	0.32639074

mlp_net.2.weight f4 [1, 100]
0	0xbdba02d0	-0.09082568
1	0xbf02353e	-0.5086249
2	0x3d24230e	0.040072493
3	0x3d1f8fcd	0.0389555
4	0xb93eafc7	-0.00018185294
5	0xbd76f340	-0.060290575
6	0x3e5a3066	0.21307525
7	0xbdb773fb	-0.089576684
8	0xbd0583a3	-0.03259624
9	0x3df80f25	0.121122636
10	0x3e33a0ff	0.17541884
11	0x3df3638b	0.11884221
12	0x3caa2aa3	0.020772284
13	0xbd76516d	-0.060136247
14	0xbc81488d	-0.015781665
15	0x3f55fbfa	0.8358761
16	0xbf58a7ce	-0.8463105
17	0xbcd4261a	-0.025897074
18	0x3e1904f7	0.149433
19	0xbd1c0253	-0.038088154
20	0xbd8984ee	-0.067148075
21	0x3d957b1d	0.072988726
22	0xbd1d0bda	-0.03834138
23	0xbca438ed	-0.020046676
24	0xbc8234c1	-0.015894296
25	0x3e29b2cc	0.16572112
26	0x3eb74ffc	0.3580321
27	0x3e2bbc4e	0.16771051
28	0xbe4a00b8	-0.19726837
29	0xbdbba75d	-0.091627814
30	0x3d6a947d	0.057270516
31	0x3d410ec8	0.047133237
32	0x3d44a6bd	0.048010577
33	0xbdaa9309	-0.08328826
34	0x3e1311ed	0.14362307
35	0x3ccf5547	0.025309218
36	0xba805acd	-0.0009792686
37	0xbd9bc06b	-0.0760506
38	0xbe88b7b6	-0.2670266
39	0xbd60210b	-0.054719012
40	0x3e5b8d24	0.2144056
41	0x3c33811c	0.010956075
42	0xbe7b0307	-0.24512874
43	0xbd6bba1a	-0.057550527
44	0xbc95470d	-0.018222356
45	0xbdc0a40b	-0.09406289
46	0x3e3c59a5	0.18393572
47	0xbe02f1d6	-0.12787566
48	0xbe83e240	-0.25758553
49	0x3e6c8469	0.23097385
50	0xbd4aa432	-0.049472995
51	0x3cdf2780	0.027240515
52	0xbc618749	-0.013765165
53	0xbd468d73	-0.04847474
54	0xbe6f3b82	-0.23362544
55	0xbdc2f7fd	-0.09519956
56	0x3d90e7f4	0.070754915
57	0xbe1e9e49	-0.15490068
58	0x3df67f2d	0.120359756
59	0x3dd745b9	0.105113454
60	0xbd4beb79	-0.04978511
61	0xbdc5702d	-0.096405365
62	0x3f0880e5	0.5332168
63	0x3d775d41	0.06039167
64	0x3e4c0494	0.19923621
65	0x3e2f9dd4	0.1715005
66	0xbc67110d	-0.014103186
67	0xbd4a40a9	-0.04937807
68	0xbd2f7e02	-0.04284478
69	0x3c5ad2c1	0.013355912
70	0x3d449177	0.04799029
71	0xbdcb4f02	-0.09927179
72	0x3e464900	0.19363785
73	0x3df1e830	0.118118644
74	0x3e1d6de1	0.15373947
75	0xbbc9a962	-0.006154225
76	0x3d0aea9d	0.03391515
77	0x3e8a622c	0.27028024
78	0x3d10a6bd	0.035315264
79	0xbdcbd6d8	-0.099530876
80	0xbd36da3d	-0.044641722
81	0xbdc289b3	-0.0949892
82	0x3ec91547	0.39274046
83	0x3ce27a5a	0.027646232
84	0x3e504343	0.20338158
85	0xbdb71b01	-0.089406975
86	0x3f14c1fa	0.58108485
87	0x3ddf2061	0.10894848
88	0x3e0cc7c1	0.13748075
89	0x3d95e3a7	0.07318812
90	0xbc3a959a	-0.011388207
91	0x3d197866	0.037468337
92	0x3e0e29bb	0.13883106
93	0xbcab14d7	-0.02088396
94	0x3d2e7469	0.042591486
95	0xbd262cdc	-0.040570125
96	0x3ca26cff	0.019827364
97	0x3bec5e5a	0.007213396
98	0xbd7b9380	-0.061419964
99	0xbd51d710	-0.05123049
