chapter_02_nn_basics_mlp/models/mlp_1d.pth (torch, 3464 bytes, 3 tensors)

mlp_net.0.weight f4 [128, 1]
00000000: 0b78 403f 8bd4 463f 6a85 71be 7103 663f
00000010: b05c 60be 5520 233e 4bf0 e2be e568 fd3e
00000020: 026e 573f d9a7 36bf 971b 333f 2b77 9d3d
00000030: 62df 153f 50ae 0a3e 7842 f13e 6094 10be
00000040: 18f7 413f b72c 123e 3c2c debe afaa 063e
00000050: 234b 08bf c02c f0bd 750b c0be 4d0f 1e3f
00000060: 2db4 44bf 7ab4 ccbe 8426 85be e46c 0ebf
00000070: abfe 903c 5c66 76bf 1aec 5c3f 2795 4fbf
00000080: ebb9 443f 5361 3b3d 3f9b 7fbe 6712 153f
00000090: 5d5a d43d 0cc9 443f 00e3 df3d 2f73 d9be
000000a0: 79fb 573e d32e 9fbe 5c48 b63e 561b 483f
000000b0: a5b6 003f 7476 d4be 9890 ed3e de8e 5c3e
000000c0: 4d46 fe3e 6bb7 16bf f9d2 76bf 528e f2be
000000d0: 3f8c 3ebf deb8 413f 19cb 8c3e 5ae6 c53e
000000e0: da0c 7c3e 0a1b 37bd 222f 473f 908d 29bf
000000f0: 20f3 803d ae09 2abf 824f 3c3e 7f0a 83be
00000100: d6d2 463e 175f 77be 9cf2 513f c43e 10bf
00000110: 4ba9 17bf 9e1a 18bf ec8d 583f 4fec 953e
00000120: 51f9 653f 3699 4ebf 015f 75bf d893 2dbf
00000130: 177d 2bbf ee72 cc3e aee7 a83e b275 443f
00000140: 2101 f5be eee2 25bf 3401 e33e 7809 afbe
00000150: ca08 0a3f c464 27be 33ef fe3e 1a1b 47bf
00000160: 3f0b fcbe cf8f 733e ac7a 6e3e c35d 5dbe
00000170: 9fb9 073f 742d 253f c5d4 25bf f435 01bf
00000180: 8cc4 643f 7a40 68be afe5 dcbe 45de 55bf
00000190: 1c77 08bf 88cc 7f3e 3829 07be aa1c 32bf
000001a0: 477b 73bd ee85 2cbf 9393 56bf af28 d3be
000001b0: 11f2 57bf 32f9 0dbf a360 703f 7068 413e
000001c0: 02b0 823e c36f 48bf 6b6f 23bf 3c0e adbe
000001d0: 256d 123e 2b27 4fbf cfc0 b5be 1fbb 13bf
000001e0: 009e 353b 2397 67be f0ea 8dbd 4a72 29bf
000001f0: 2dca 29bf 1201 14bf cc95 86be 4a28 48bf
0.7518317 0.77668065 -0.2358605 0.89849 -0.21910357 0.15930302 -0.44323954 0.4949409
0.84152234 -0.71349865 0.69963974 0.07688745 0.5854398 0.13543057 0.47121024 -0.141191
0.7576766 0.1427487 -0.43393123 0.13151048 -0.5323965 -0.117272854 -0.3750874 0.617421
-0.76837426 -0.39981443 -0.26005948 -0.55634904 0.01769956 -0.9624994 0.8629776 -0.81086963
0.7684619 0.045747112 -0.24961565 0.58231205 0.10368798 0.76869273 0.10931969 -0.4247069
0.21092023 -0.31090412 0.3560208 0.7816671 0.50278693 -0.41496623 0.4639938 0.21538875
0.4966301 -0.58873624 -0.9641567 -0.47374207 -0.7443275 0.7567271 0.274987 0.38652307
0.24614277 -0.04470352 0.77806294 -0.6623163 0.062963724 -0.6642102 0.18389705 -0.25593945
0.19416365 -0.24157368 0.8201082 -0.5634577 -0.59242696 -0.59415615 0.84591556 0.29281852
0.8983355 -0.8070253 -0.9584809 -0.67803717 -0.66987747 0.39931434 0.32989258 0.7674209
-0.47852424 -0.6479939 0.44336855 -0.34186912 0.5391966 -0.16347033 0.4979187 -0.7777573
-0.4922733 0.23785327 0.23288983 -0.21617799 0.5301761 0.6452248 -0.64777786 -0.5047295
0.89362407 -0.22680846 -0.43143985 -0.8354228 -0.53306746 0.24980366 -0.13199317 -0.6957499
-0.05944374 -0.6739186 -0.8381893 -0.41241977 -0.8435374 -0.55458367 0.93897456 0.18887496
0.25524908 -0.78295535 -0.63841885 -0.33799922 0.14299448 -0.8091914 -0.35498664 -0.577074
0.0027712584 -0.22616248 -0.069295764 -0.66190016 -0.6632412 -0.57814133 -0.2628616 -0.78186476

mlp_net.0.bias f4 [128]
00000000: 4d99 643f febd a0be c2e0 613f 15ba bb3e
00000010: b0c7 58bf d08c 1c3f 792c e0be b27e 12bf
00000020: 16af 54bf ba40 93bf 5bf4 0f3e 6c9e a4be
00000030: da52 783e 0017 52bf cfde 483f f2ea 3bbf
00000040: 32f0 eebd 2b9d 853e f80e e43e e9ce 1d3f
00000050: 5548 5e3f f2fc 4abf a78b 213e b02f 10bf
00000060: ff77 18bd 53ed 5abf 76bf 543f e6b3 43bf
00000070: ccff ca3e 4149 f13e a2e4 6a3e eb2e 32bf
00000080: cca2 773f d984 d63d e175 9d3e 2a01 88bf
00000090: 6321 b83e ace3 7cbe 448f eabe ffec 3f3f
000000a0: b680 fe3d bedf 2cbf aee3 35bf 4b42 34be
000000b0: 0cea 103f 109d 39be d2c0 50bf 0897 efbe
000000c0: 6efd 60bf e179 833e 16d1 663f 9f82 82bf
000000d0: a7ec b23e 081b 0a3f 1546 863e d563 a8be
000000e0: ba06 eb3e 8b26 0a3f 2cbb de3e b43d 8fbe
000000f0: 0894 87be b208 873c 81b7 c7be 5f15 0dbf
00000100: 8114 1c3f ec05 433f e6f0 1ebd dcff a9be
00000110: a7d2 bb3d 3770 fd3c c2a1 123e 6ace 413e
00000120: 6d88 8abf 1091 93be b7a1 423f c59d ac3e
00000130: 8d6a 263d 007e 3abf f7d1 2cbf a8da 89bf
00000140: b2fb 8fbe 1dda 773e 8f1d 083f 7387 173f
00000150: c71b 8ebf e9ba 2cbf b2bb 98be 7f77 873f
00000160: 5013 8a3e 9872 debe 8793 e33e 9e9f eebe
00000170: fc4d 55bf 3b32 453f 06c4 28bf e2a2 9fbe
00000180: c6f8 76bf 9bea 473f b4a2 343f 977c ac3e
00000190: b6ed 61bf 18a8 7cbf f6ea 4fbf 8026 2b3f
000001a0: 03ea a73e 7acb 703f eadc 243f f0e1 a83e
000001b0: 3a49 d5bd cc4e 82bf 18f7 64bf 0273 6fbf
000001c0: d50f a93e 1826 35bf c777 98be 814d 3abf
000001d0: 9fac 9bbe d410 49bf 9433 3ebf 6b16 ec3e
000001e0: 202a 98be ea1b 3a3f 0c41 a4be b33a 2dbf
000001f0: ab00 8ebe 4ccf cdbe a7bf 08bf 0c8b 8abf
0.8929642 -0.31394953 0.8823358 0.36665407 -0.846797 0.6115236 -0.4378393 -0.5722457
-0.8307966 -1.1504128 0.14058058 -0.32152116 0.24250355 -0.82066345 0.7846498 -0.73405373
-0.11666907 0.26096472 0.4454267 0.61643845 0.8682912 -0.79292214 0.1577593 -0.56322765
-0.037223812 -0.8551838 0.83104646 -0.7644638 0.39648283 0.471262 0.22938779 -0.6960284
0.96732783 0.104745574 0.30753997 -1.0625355 0.35962972 -0.24696225 -0.45812428 0.74971
0.124268934 -0.67528903 -0.71050537 -0.17603414 0.5660713 -0.18126321 -0.8154422 -0.46794915
-0.87886703 0.25678924 0.9016279 -1.0196112 0.34946176 0.53947496 0.26225343 -0.32888666
0.4590357 0.5396506 0.43502176 -0.27976763 -0.26480126 0.016483638 -0.3900719 -0.55110735
0.60968786 0.7618091 -0.038803957 -0.33203018 0.09171038 0.030937297 0.14319518 0.18926397
-1.0822884 -0.2882161 0.7602801 0.3371412 0.04062896 -0.7284851 -0.6750788 -1.0769854
-0.28121716 0.24204297 0.531701 0.59191054 -1.1102227 -0.674727 -0.298307 1.0583342
0.2696786 -0.43446803 0.44448492 -0.46606153 -0.8332212 0.7702977 -0.6592411 -0.31178957
-0.9647335 0.78092355 0.70560765 0.33688805 -0.88253343 -0.9869399 -0.81217897 0.6685562
0.32795724 0.9406048 0.6439959 0.32984877 -0.104143575 -1.0180297 -0.89439535 -0.93534863
0.3301989 -0.7076125 -0.29778883 -0.7277451 -0.30405137 -0.785413 -0.7429745 0.46110854
-0.2971964 0.72698843 -0.32080877 -0.6766769 -0.27734885 -0.40197217 -0.5341744 -1.0823684

mlp_net.2.weight f4 [1, 128]
00000000: 843b b03d 6956 60bd 16bf 893d 0b41 7c3d
00000010: 7d53 813d 2682 f9bc 1fe0 be3d 6d5b 89bd
00000020: 0af1 81bc a453 593e 8f3b 1f3c d9ff 2ebd
00000030: cb8e f33b fa25 97bd 4cf9 a63d 7db3 b3bd
00000040: 4e40 6c3d 9ef9 c83d a812 213d fdcb 3f3c
00000050: 5856 debd 64cb a23c c300 a23c fb6b debd
00000060: 1034 abbc e5da 093e 520b 723c 9d38 803d
00000070: e78a bf3b 504e 48bd 7c01 6ebd 4832 d83d
00000080: b5d9 e43d d483 ac3c 2280 15bd ba32 27be
00000090: 54d3 29bd 93c4 9cbd 038e 063d 26b2 7fbd
000000a0: db99 9abc e433 763e 6f2f 03be c291 7fbc
000000b0: 9328 153d d20e f23b 6742 cbbd 540b 86be
000000c0: 48cf 4fbe b64c 3c3d c597 91bd 9dbd b63e
000000d0: b54e 4abd 075e 0d3d 7836 dc3d 3453 04ba
000000e0: f0ae f2bc 7348 933d d9f6 dd3d 5dc4 d73c
000000f0: 3cb8 723d 679d 923d 9078 61bd 12fe cd3d
00000100: 7da2 b1bc e305 b03c 0a0d 953d 27f5 653d
00000110: ac94 83bd 591c 96bd ec23 17bd f03e 4abd
00000120: 757c f3bd a1f4 b5bb a822 bb3c f3e0 2abc
00000130: 2b76 91bd 455c 52be 032b f6bd 7e0c 0abe
00000140: 29dd 933c c89a 8c3c f3b7 ea39 b6f7 5abd
00000150: 250e 12be 9f63 893d 5ccd 27bd 9642 fbbd
00000160: facb b8bd 6206 d1bd 4b48 f93d c293 f93d
00000170: 0622 08be e98c 6a3d 0b53 753d a541 723d
00000180: e4eb 1e3b b899 573d 0b7c f5bd 6245 52bc
00000190: 4546 293e acd8 05bc 8357 55bd e3a1 2f3d
000001a0: 44ab 833c 22bd c0bd 5d10 e3bd e071 aebc
000001b0: 8d63 f93c 567a 083e b075 bebc 6548 89bd
000001c0: 4241 19bd f66b dc3c b51c b23d 74bc 7d3e
000001d0: 0108 11be dd0b 183d a4ea cf3d b3da 93bd
000001e0: 1421 833c 727d fb3c 6bf3 953d 865e ae3a
000001f0: fd1d 803d 629f 7bbc e09e e43d ed4b 3a3e
0.08605102 -0.054769907 0.067259 0.061585467 0.06314752 -0.030457567 0.093200915 -0.06706891
-0.015862007 0.21223313 0.00971879 -0.042724464 0.0074327937 -0.0738029 0.08153018 -0.08774469
0.057678513 0.09813236 0.039324433 0.011706349 -0.108563125 0.019872375 0.019775754 -0.108604394
-0.020898849 0.13462408 0.014773207 0.06260798 0.005845416 -0.04890281 -0.058106884 0.105564654
0.11174337 0.021058954 -0.03649915 -0.16327944 -0.041461304 -0.07654681 0.032850277 -0.062425755
-0.018872192 0.24043232 -0.12811063 -0.015598716 0.036415648 0.0073870206 -0.099247746 -0.26180518
-0.20293915 0.045971595 -0.07109026 0.35691538 -0.049391467 0.0345135 0.107525766 -0.00050477986
-0.029624432 0.07191553 0.10838098 0.02633875 0.05925773 0.07158928 -0.055046618 0.10058226
-0.021683926 0.021487182 0.07277878 0.056142 -0.06424841 -0.07329626 -0.036899492 -0.049376428
-0.11888973 -0.0055528437 0.022843674 -0.010429609 -0.07102617 -0.2054301 -0.120199226 -0.13481328
0.018049793 0.01716365 0.0004476901 -0.05345889 -0.14263208 0.06708454 -0.04096733 -0.1226856
-0.090232804 -0.102062955 0.12171992 0.12186386 -0.13294229 0.05726329 0.05989365 0.059144635
0.0024249488 0.052636832 -0.1198655 -0.012833925 0.16530712 -0.008169334 -0.05208541 0.042878997
0.016072877 -0.09411074 -0.110871054 -0.021294534 0.030442977 0.13327917 -0.023249477 -0.06703261
-0.03741575 0.026906949 0.08696882 0.2477892 -0.1416321 0.03712069 0.10152176 -0.07219448
0.016006984 0.030699465 0.07321819 0.0013303317 0.0625572 -0.015357824 0.111631155 0.18193026
