chapter_02_nn_basics_mlp/models/mlp_2d.pth (torch, 3976 bytes, 3 tensors)

mlp_net.0.weight f4 [128, 2]
000000 59 bc 22 3f 74 11 b2 3e de 12 99 be ed 10 eb 3e
       0.63568646 0.3477894 -0.29897207 0.4591135
000010 83 81 2e be 27 98 69 3e 5d 21 79 be 60 3e 0f 3f
       -0.17041592 0.22811948 -0.24329133 0.5595455
000020 59 f3 3b 3f a0 95 0b be d2 c9 29 3f 57 46 93 bb
       0.73418194 -0.13631296 0.6632358 -0.004494469
000030 e2 fa fe 3e 9c 6a 19 bd 55 05 cc 3e 6b 66 4d bd
       0.49800783 -0.037455186 0.39847818 -0.0501465
000040 08 e3 0f 3f 0f 99 48 3c a0 d1 54 be ef e0 c6 bc
       0.562058 0.012243523 -0.2078309 -0.024277179
000050 82 f8 82 be 1b bc 45 bc 4b 32 ea bd 0e 0e 25 3f
       -0.2558022 -0.012068774 -0.11435374 0.6447457
000060 d9 75 fd be 4f 5b db be 5b 1b 39 be 40 0b c9 be
       -0.49503973 -0.428431 -0.18076842 -0.39266396
000070 df 80 53 3d bd 7f 2c bf 28 a9 0d 3f bb 3a 0d bf
       0.051636573 -0.67382413 0.55336237 -0.5516774
000080 cf 1d ff 3e 4f 1a 0a 3c 66 93 20 be b7 b5 c8 3e
       0.4982743 0.008429124 -0.15681228 0.39201137
000090 24 64 fb 3c 73 b0 e2 3e 0f 05 c9 3c 3f ac 9b be
       0.0306874 0.44275245 0.024538545 -0.3040485
0000a0 a4 04 df 3e 5d 53 2f 3c d2 25 13 3e 25 0a 4f 3f
       0.43558228 0.010701028 0.14369896 0.80874854
0000b0 94 5b a8 3e 38 e6 da be 18 7c 16 3f 43 74 23 3c
       0.3288237 -0.42753768 0.587831 0.009976449
0000c0 26 b9 6b 3e 76 c1 0d bf a0 d8 25 bf 7f 9c 88 bd
       0.23019847 -0.5537332 -0.6478367 -0.06670474
0000d0 b2 a1 f5 be 69 ef 27 3f 28 b0 95 3d 5c 01 ea 3e
       -0.47974926 0.65599686 0.0730899 0.45704162
0000e0 84 5c 2a 3e ec 41 45 be 9f c4 01 3f be ed 17 bf
       0.16636854 -0.19263428 0.50690645 -0.5934714
0000f0 fe db b8 3d 36 eb 66 be c3 c1 30 3e 7e 3e d9 be
       0.09026335 -0.22550663 0.17261414 -0.4243049
000100 03 fa 85 3e 2b 21 ba bb ac 94 0f 3f c8 c4 00 bf
       0.26167306 -0.0056802235 0.5608623 -0.50300264
000110 0a 2e 8f be b3 73 15 bf 3d 24 2b 3f cf 54 05 3d
       -0.27964813 -0.5837967 0.6685217 0.032551583
000120 45 67 45 3f b0 37 3c be 03 fd 11 bf 70 3d 2c bf
       0.771107 -0.18380618 -0.5702669 -0.67281246
000130 4d 6b 09 bf 7f f5 1a 3e df f6 a5 3e d0 a8 b5 3e
       -0.53679353 0.15132712 0.3241491 0.35480356
000140 f9 17 d3 be e8 9f ba be d2 1d b2 3e ac ff a1 be
       -0.41229227 -0.36450124 0.34788376 -0.31640375
000150 e8 dd b9 3e ba f2 75 bd b6 14 84 3e 4f 79 31 bf
       0.36302114 -0.060045935 0.2579705 -0.6932573
000160 96 14 ae be c5 c7 8f 3e 1a 5e 38 3e 52 3a ea bc
       -0.3400008 0.280821 0.18004647 -0.028592262
000170 b1 80 f2 3e 50 af bf 3e 9a 4a cf be f8 bb ef be
       0.4736381 0.3743844 -0.40486604 -0.46823096
000180 a0 8b 3b 3f b1 88 07 3e 41 ea 72 be d0 b8 12 bf
       0.73259926 0.13235737 -0.23722173 -0.5731325
000190 fe 80 ae be bd dd a7 3e 61 30 cd bd f5 61 c5 be
       -0.34082788 0.3278636 -0.10018993 -0.38551298
0001a0 50 f4 37 bb 79 b0 1f bf 37 e0 d1 be 35 21 22 bf
       -0.0028069206 -0.6237865 -0.40991375 -0.6333192
0001b0 66 66 00 bf d5 ab 28 bf 21 39 32 3f a5 b6 c6 3b
       -0.5015625 -0.65887195 0.6961842 0.0060642534
0001c0 0d 54 96 3d b3 30 4f bf 34 ef bb be 05 29 01 bf
       0.0734025 -0.80933684 -0.36705935 -0.50453216
0001d0 0e ca 6c 3d 07 25 f1 be 54 88 a4 be 60 da ba be
       0.057809882 -0.47098562 -0.3213526 -0.36494732
0001e0 85 28 80 3c 29 81 05 be 7d 82 8e bd 78 04 17 bf
       0.015644321 -0.13037552 -0.069584824 -0.58991194
0001f0 aa b2 cd be e5 23 05 bf 60 52 9a be 98 51 c8 be
       -0.40175372 -0.52007896 -0.30140972 -0.3912475
000200 81 fb 0d 3f 9d 9b d3 be 96 8c 1c 3f da 2c da 3c
       0.5546189 -0.4132966 0.6115202 0.026632715
000210 13 40 f1 be 8f 8e 31 3f 20 6b 21 be c5 3e d3 be
       -0.47119197 0.6935815 -0.15763521 -0.41258827
000220 83 6e e4 be 49 f5 58 bf aa cc d5 3e 45 29 a0 3c
       -0.44615564 -0.84749275 0.4175771 0.019550929
000230 0a dc bd 3e 58 d5 82 be d8 66 29 3f ed 1b 78 be
       0.3708194 -0.25553393 0.6617255 -0.24229403
000240 88 79 68 be fe bb 88 3e c3 65 ec 3e 6c 01 df 3e
       -0.2270261 0.26705927 0.46171388 0.43555772
000250 72 42 3e 3f 5b f3 0e be b2 c3 48 3d 7b 0c e7 be
       0.7432014 -0.1396002 0.049014755 -0.4512671
000260 2e 28 ba bc c6 d3 29 bf 5a 09 1a 3f 44 90 13 bf
       -0.022724237 -0.66338766 0.6017052 -0.57642007
000270 48 e8 f9 3e 39 2d c5 3b 7d c9 55 3e 1f d9 d8 be
       0.4881003 0.006017354 0.20877643 -0.4235315
000280 eb 8f 21 3f bd ea d6 3d 55 81 9d 3b bd 95 45 bf
       0.63110226 0.104939915 0.0048066773 -0.7718161
000290 de cc c6 3e ab bd e5 ba e0 19 0f be 68 52 49 3f
       0.38828176 -0.0017527839 -0.13974714 0.78641367
0002a0 1d a0 6a 3e ac 3f 96 be 39 7e a5 be 68 d2 b9 3b
       0.22912641 -0.29345453 -0.32322863 0.0056708343
0002b0 80 fc b5 3e 24 3b dd be c3 d3 10 bf 8d ed 15 3c
       0.35544205 -0.43209183 -0.5657312 0.009150875
0002c0 3d 93 16 bf ff 2d 46 bd 06 7d ef 3e 67 38 09 bf
       -0.5881842 -0.04838371 0.46775073 -0.5360169
0002d0 1f 8b 16 3e c7 4f 00 3f c7 57 85 3e c5 60 73 bc
       0.14701508 0.5012173 0.2604353 -0.014854615
0002e0 40 57 b8 3e 58 31 98 3e d4 fd 3e 3e c9 00 8a be
       0.36004066 0.29725146 0.18651515 -0.26953724
0002f0 0b 55 1b be 04 b9 aa 3a 64 25 29 bd 9c 6e ad bd
       -0.1516916 0.001302511 -0.041295424 -0.08468363
000300 47 be 12 3f 2f b4 b8 3e c6 26 9c bc df ec 4a be
       0.5732159 0.3607497 -0.019061457 -0.19816922
000310 1e 0e 29 3c fc ee 2c bd d3 af 45 3e 3a d6 be bc
       0.010318307 -0.0422201 0.19305353 -0.02329551
000320 8b ce 2f bf 85 6e bd 3d 17 c2 15 3f f2 d6 1a 3e
       -0.68674535 0.092495956 0.5849928 0.15121058
000330 ed ce a7 bc 22 0e 26 be 80 68 b8 be 36 21 49 bf
       -0.020484412 -0.16216329 -0.36017227 -0.785663
000340 17 49 9f be 3b b2 a2 3d 67 6c d6 3e 0b c7 d1 3e
       -0.3111045 0.07944151 0.4187958 0.4097217
000350 3d 80 3c bf ec 90 e7 bd c4 6b 39 bd 7b 11 2c 3f
       -0.73633176 -0.113069385 -0.04526879 0.67214173
000360 c7 32 cc 3d 40 f2 13 bd 35 aa a5 3e ff ec 2e 3d
       0.099706225 -0.0361197 0.3235642 0.042706486
000370 75 5f a2 be 90 49 28 3f d7 eb dd be b9 ce 3d 3c
       -0.31713453 0.6573725 -0.43343994 0.011584931
000380 2d a7 39 bf 1c c6 60 3e 56 0c 0c 3f 49 89 25 3e
       -0.72520715 0.21950573 0.54706323 0.16165651
000390 da 5f d3 be d6 6a 58 bf 61 2f 05 bf b6 0c 22 3f
       -0.41284066 -0.8453802 -0.5202542 0.63300645
0003a0 ac e9 1f 3e e5 92 43 3f 8f 4e be 3e a1 3d d5 3c
       0.15616482 0.7639602 0.3716931 0.026030364
0003b0 3e a9 3b 3c a6 45 14 bf 1b 4a 2f bf f5 83 04 bf
       0.011453925 -0.57918775 -0.6847245 -0.5176385
0003c0 e8 1d c3 3e b8 7b 86 bd df b0 6e bd d8 78 9d be
       0.38108754 -0.06566566 -0.058274146 -0.3075626
0003d0 4f b8 f7 bd 5a a7 28 bf 11 87 9c be 85 f9 dd 3e
       -0.12095701 -0.6588036 -0.30571797 0.4335443
0003e0 91 2c e7 bd 33 c9 18 3f b3 57 07 be cc 31 29 bf
       -0.11287797 0.59682006 -0.13217048 -0.6609161
0003f0 eb 2b 40 bd 6d 0e e4 be 99 ca 1d be f5 25 57 bf
       -0.046916883 -0.44542256 -0.15409316 -0.8404229

mlp_net.0.bias f4 [128]
000000 46 32 ee 3e 61 07 1c bf 11 7a 4b 3e c4 51 25 3e
       0.4652273 -0.6094876 0.19870783 0.16144472
000010 a4 b1 3b 3f 53 e9 62 bf 00 be 23 3f 07 f3 20 bf
       0.73317933 -0.88637275 0.6396179 -0.6287083
000020 ce 70 0b 3f 26 32 51 3f bb f0 07 bf 89 86 38 be
       0.54469 0.81717145 -0.531017 -0.18020071
000030 6b a4 42 be bc 38 03 bf 74 33 ce 3e 61 39 64 bf
       -0.19008033 -0.51258445 0.4027363 -0.89150053
000040 0a 90 09 3f 02 0c 1c 3f 74 46 4f 3f a7 41 c2 bd
       0.5373541 0.6095582 0.8096688 -0.094851784
000050 68 dd 50 bf 9d a8 92 3c 00 de 94 3e d7 84 5c bf
       -0.8158784 0.017902667 0.29075623 -0.861402
000060 fc 62 67 be 9a 17 62 bf e2 fd 60 be 24 66 8a be
       -0.22596353 -0.88317263 -0.21971849 -0.27031052
000070 7b c3 86 be 75 82 20 be fe dd 6a bf d0 f1 d5 3e
       -0.26321015 -0.15674765 -0.91744983 0.4178605
000080 d3 5d e5 3e e9 9e c4 3c a7 c3 24 be f7 6e 05 bf
       0.44798145 0.024001556 -0.1609026 -0.52122444
000090 81 01 66 bf f7 93 4d bf 97 3c 80 3e a6 75 18 bf
       -0.89846045 -0.803039 0.25046226 -0.5955452
0000a0 ae 3e b0 be e9 0f ce 3d 15 c8 1e bf 1c 1d 85 be
       -0.3442282 0.10061628 -0.6202405 -0.2599877
0000b0 72 a4 4c bd 55 be 01 be 66 ed 12 be 9c 86 ec be
       -0.049961515 -0.12670262 -0.14348373 -0.4619645
0000c0 d5 ae 4e bf ba b6 35 3f 36 17 75 be 8c b9 ab 3e
       -0.8073552 0.70981944 -0.23934636 0.3354
0000d0 64 ca c4 bd 55 18 6b be e7 63 d8 3e 44 da 26 3f
       -0.096089154 -0.229585 0.4226372 0.65176797
0000e0 ed b0 be be 83 43 79 3e a1 bf 52 3f b3 b5 83 3e
       -0.3724436 0.2434216 0.8232365 0.25724563
0000f0 53 14 18 3f 9b b3 11 3f 17 95 4f be 9d 87 ae 3e
       0.5940601 0.5691468 -0.20271717 0.3408784
000100 c3 6b bb be f3 42 bb be 44 e1 9d 3e 80 41 4f 3e
       -0.36605653 -0.36574516 0.30835927 0.2023983
000110 28 2d fd be 84 f8 3b bf 19 d0 3b bf 77 eb 30 bf
       -0.49448514 -0.7342608 -0.73364407 -0.6910929
000120 65 54 f3 be be 56 d3 bd 9c fa 38 3f 23 95 f9 3c
       -0.47525325 -0.10319279 0.722574 0.030466622
000130 67 5f 86 be 9f 81 fd be 11 9c 14 3f 49 bb 04 bf
       -0.2624466 -0.49512956 0.5805064 -0.51848274
000140 59 e5 44 3e 79 19 7f 3e e1 a3 07 bf c7 55 76 be
       0.19228114 0.24912061 -0.52984434 -0.24056159
000150 1c ad 7a 3c d2 09 0f bf b2 ab 80 be 1b 02 7d bf
       0.015300062 -0.5587436 -0.25130993 -0.9883134
000160 ea 66 7c bf 9a 27 14 bf 89 59 09 3f 86 b4 11 bf
       -0.98594534 -0.5787293 0.53652245 -0.5691608
000170 db a3 35 bf 79 28 73 3d 6c 1a ac 3e d2 48 f2 3e
       -0.7095315 0.05936477 0.33613908 0.47321182
000180 5f 9f 28 3f fe f9 bd 3e 19 7b 33 bf bb c2 b6 3e
       0.6586818 0.3710479 -0.7010971 0.35695443
000190 77 a1 16 3f 49 ee 7a be 70 96 24 bf 84 98 ed 3e
       0.58840126 -0.24504961 -0.6429205 0.46405423
0001a0 72 02 a4 be cc c9 8d be e2 f5 88 bf 97 c2 b5 3d
       -0.32033116 -0.2769302 -1.0700037 0.08875006
0001b0 4f 14 d2 3e f7 9e e7 3e 40 04 ff 3c 36 f8 5f bf
       0.4103112 0.45238468 0.031129956 -0.87488115
0001c0 09 0d 84 bf d7 7a 8b 3e 59 80 f2 3e 85 8f 9c 3e
       -1.0316478 0.27242157 0.47363546 0.30578247
0001d0 77 2e cc be ec 75 88 be ec 01 9d be 84 2f 71 be
       -0.398792 -0.26652467 -0.3066553 -0.23553282
0001e0 e9 3a a1 3e 57 0d 05 3f 37 7a d6 3e dd 65 31 bf
       0.31490257 0.5197348 0.41890118 -0.69296056
0001f0 a1 99 91 3e ef 94 56 be 6b b1 3e 3e 96 45 e2 3e
       0.28437522 -0.20955251 0.18622367 0.44193715

mlp_net.2.weight f4 [1, 128]
000000 ef 77 fe 3c ae ef 8b bd 8f c1 63 bb 52 9a e8 bc
       0.031063048 -0.06832825 -0.003475282 -0.028393898
000010 10 d2 02 3e 94 d1 54 be f0 26 c8 3d 72 4f 75 be
       0.12775445 -0.20783073 0.09773052 -0.23956087
000020 ce fa 25 3e 40 8a 93 3d ff 12 23 3e 1a f7 3b be
       0.16208956 0.072041035 0.15925215 -0.1835598
000030 c4 b6 01 bd 44 5f 88 bd 60 5a a2 bd b2 46 12 bd
       -0.03166844 -0.066587955 -0.07927394 -0.03571195
000040 6a 98 a2 3d f2 d6 30 3d 86 69 26 3d 3c 85 b5 bd
       0.07939227 0.043173738 0.04062798 -0.08863303
000050 53 49 c2 be d7 b8 2a be 70 1d 79 bc 34 e3 c8 be
       -0.37946567 -0.16672073 -0.015204772 -0.39235842
000060 38 5f b5 bc 94 ae 34 3e 3c 4c 4c bd b8 9a 06 be
       -0.02214013 0.17644721 -0.04987739 -0.13144958
000070 f4 3a c7 bc 72 6f 4b 3d e4 61 8c bd c9 fe 22 3d
       -0.024320103 0.04966683 -0.06854609 0.039793763
000080 27 30 73 3d 11 32 4a 3d 1b b9 4e bd 2c 3b 0f be
       0.059372094 0.049364153 -0.0504695 -0.13987416
000090 05 25 6c bd df 25 2c bd dd f2 9d bd f7 94 95 bd
       -0.057652492 -0.042028304 -0.07712338 -0.073038034
0000a0 28 09 5c bb 75 89 04 3d d7 f5 ef bd bf bd 9a bd
       -0.0033574793 0.03235765 -0.11716812 -0.075557224
0000b0 b4 29 b3 bc 9a b1 f4 bc aa 09 be 3b b1 06 af 3b
       -0.021870472 -0.029869843 0.005799492 0.005341374
0000c0 0f cc 48 be 15 59 5b 3c ab 37 f9 bc fe a7 b0 bd
       -0.19609092 0.013387938 -0.030422052 -0.08625792
0000d0 9b 94 33 be 8d c4 2b 3d b8 42 4b 3c 4a d8 dd 3d
       -0.17537157 0.041935492 0.012406044 0.108322695
0000e0 82 e5 0d be 69 77 85 3d 9e 17 42 3d 00 61 ed 3c
       -0.13857082 0.06516916 0.047385804 0.028976917
0000f0 93 48 44 3e cb fd 26 3d a3 8b f1 bc 79 77 2b bd
       0.1916831 0.04076938 -0.02948553 -0.041861985
000100 bd 92 10 3b 3b 1e d3 bd c2 89 93 3c 7b 03 ad bc
       0.002206012 -0.103085004 0.018010024 -0.021119824
000110 70 fc e6 bd c0 0c ac be ae 2a 34 bd 22 31 25 bd
       -0.112786174 -0.33603477 -0.043986015 -0.04033006
000120 da e0 fa bd 79 c0 02 3d e7 57 a3 3d 22 30 86 bd
       -0.12249918 0.031921837 0.079757504 -0.06552149
000130 6d 41 12 be c9 52 b7 3c b2 8f 10 3e 22 93 b3 bd
       -0.1428277 0.022378342 0.14117315 -0.08768298
000140 95 21 42 3d 0f d5 fd bd 80 42 96 be ed d4 45 be
       0.047395308 -0.12394153 -0.2934761 -0.19319506
000150 40 6b 30 3d 10 5b 75 3e 65 52 8e 3d 59 7c b5 3e
       0.04307103 0.23960519 0.06949309 0.35446432
000160 67 ad a9 3e 06 74 8a ba b4 e9 b7 3c 81 f4 1e be
       0.33140108 -0.0010563142 0.022450306 -0.15522958
000170 a6 e8 e1 bd c8 2c 9c 3c 3f 38 be bd 9f 80 bf 3d
       -0.11030702 0.019064322 -0.09288072 0.093507044
000180 c4 b2 8c 3d 40 a0 b1 3d 71 15 55 bd 5e 43 8d 3d
       0.06870034 0.086731434 -0.0520224 0.06897615
000190 f8 6c 08 be 95 b7 62 bd 5c 93 88 bd e4 53 99 3c
       -0.13322818 -0.05535086 -0.066687316 0.01871676
0001a0 f9 57 92 3d 16 e1 e2 3c 0c bb 28 3e fd 83 04 be
       0.07145686 0.02769522 0.16477603 -0.12940975
0001b0 d6 be a9 3d d9 ef 9b 3d 46 bf c8 bc 2c 64 81 3e
       0.08288352 0.07614107 -0.024505269 0.25271738
0001c0 62 01 e0 3d 60 03 f3 3d b2 78 ce 3a a5 a5 56 bc
       0.10937764 0.11865878 0.0015752523 -0.013101016
0001d0 27 6e 00 be aa 96 71 bd 56 14 e9 bd 8b 28 c2 3c
       -0.1254202 -0.058981575 -0.11380832 0.023700973
0001e0 29 26 dd 3d da 75 43 3d 71 ce b9 bc 54 2f f8 bc
       0.10798294 0.047719814 -0.022681447 -0.030296005
0001f0 ed 3c 80 bd a8 37 11 be 2f c1 49 bd 1f af 14 be
       -0.06261621 -0.14181387 -0.0492565 -0.14519928
