chapter_02_nn_basics_mlp/models/mlp_2d.pth (torch, 8328 bytes, 3 tensors)

mlp_net.0.weight f4 [400, 2]
0.34886992 0.48396572 -0.024761327 0.61052436 -0.51712334 0.04705157 -0.27992705 0.2993999
0.42827785 -0.24215631 0.6986419 0.0143027725 0.44277743 0.01740475 0.1905457 -0.005247895
0.45910585 0.032062255 -0.31653446 0.01543706 -0.29135364 -0.086590536 -0.16757679 0.44681758
-0.35526034 -0.5259098 -0.14014702 -0.12792169 0.059007462 -0.7594 0.48319605 -0.60023177
0.4758728 0.015339047 -0.084890485 0.25843298 0.10829569 0.44812545 0.008258938 -0.3344773
0.058302134 -0.0025204495 0.14762133 0.28614318 0.32106534 -0.26608208 0.4918607 0.009797934
0.25736153 -0.25098872 -0.65610915 -0.035691876 -0.47378463 0.4590402 0.3194415 0.06396959
0.19179113 -0.016419066 0.43954813 -0.24867664 0.008144929 -0.32344997 0.054458622 -0.08145469
0.30891645 -0.02849291 0.39857885 -0.32776728 -0.3128649 -0.28060907 0.3730872 0.15871833
0.5206937 -0.29575184 -0.47901514 -0.59292907 -0.10842095 0.025393724 0.1648004 0.3639624
-0.20310363 -0.41028273 0.3738507 0.020912312 0.4048211 -0.019304425 0.33507687 -0.43151805
-0.318954 0.04508798 0.15674937 0.004138518 0.31169122 0.35720426 -0.2959253 -0.08986572
0.392717 -0.07220421 -0.14158028 -0.58626485 -0.25485778 0.018700235 -0.049234804 -0.53550744
-0.090811245 -0.5375126 -0.2640941 7.094466e-06 -0.43738267 -0.24629673 0.7131614 0.0731685
0.014782628 -0.62910026 -0.3161494 -0.2171207 -0.02233963 -0.49555403 -0.28274953 -0.3333083
-0.01021048 -0.2554369 0.054575145 -0.547087 -0.38650566 -0.33096334 -0.15258728 -0.5317015
0.44356543 -0.15585504 0.57330143 0.06867011 -0.56453615 0.3576991 -0.09090782 -0.10907554
-0.3710981 -0.3323134 0.30325982 0.01881266 -0.0066556013 -0.15010881 0.4214158 -0.1604399
-0.022360206 0.043288462 0.23797053 0.285382 0.54072124 -0.48725384 0.21059634 -0.17343704
-0.020292703 -0.3029376 0.46408612 -0.3751295 0.26765147 0.08718407 0.121383294 -0.15967247
0.38729012 0.116365775 0.08041595 -0.6388115 0.032635525 0.020810492 -0.28551278 0.53824264
0.06985948 -0.40881255 -0.19099149 0.0009906621 0.38289237 -0.07360255 -0.32639617 -0.2281288
-0.4781044 -0.035156675 0.41280466 -0.5521535 0.18856098 0.2672464 0.0699362 -0.10434841
0.26541758 0.35370925 0.09487008 0.022889586 -0.1155042 0.038549628 -0.028823748 -0.041439265
0.33922645 0.5591023 -0.071588844 -0.14204425 0.010318307 -0.0422201 0.2601984 -0.032325145
-0.5865533 -0.09263425 0.5149645 0.21334106 -0.016215175 -0.3739422 -0.2868805 -0.34790048
-0.13563298 0.15267323 0.31031373 0.20397629 -0.62860394 -0.07458357 -0.08422634 0.6666588
0.0005144149 -0.02424702 0.26004052 0.028830843 -0.37275377 0.36827317 -0.20478764 -0.20310038
-0.3206597 0.2322117 0.16726686 0.19135731 -0.39868748 -0.47495258 -0.45693287 0.38908976
0.17761844 0.52425253 0.20215954 0.044914756 0.010624411 -0.59488094 -0.31952265 -0.50643677
0.3040648 -0.18093066 -0.010915986 -0.27465624 -0.07814795 -0.46321133 -0.3062459 0.1491868
-0.17326269 0.52824056 -0.16415519 -0.5214745 -0.077153504 -0.15313536 -0.16929394 -0.16013011
00000000: 149f b23e 5bca f73e 44d8 cabc 534b 1c3f
00000010: 3262 04bf 26b9 403d 9952 8fbe f24a 993e
00000020: 3c47 db3e d3f7 77be 32da 323f 2d56 6a3c
00000030: b9b3 e23e 6894 8e3c 691e 433e 89f6 abbb
00000040: ec0f eb3e b653 033d ce10 a2be b9eb 7c3c
00000050: 4e2c 95be 6156 b1bd 4099 2bbe 46c5 e43e
00000060: afe4 b5be 06a2 06bf b382 0fbe e7fd 02be
00000070: cfb1 713d 0a68 42bf 7965 f73e caa8 19bf
00000080: 9aa5 f33e a050 7b3c 10db adbd 5451 843e
00000090: 21ca dd3d b370 e53e 7f50 073c 9c40 abbe
000000a0: 38ce 6e3d 202e 25bb 0c2a 173e 5c81 923e
000000b0: ad62 a43e e93b 88be 2ad5 fb3e 8487 203c
000000c0: e4c4 833e 9881 80be c5f6 27bf a531 12bd
000000d0: e693 f2be 5107 eb3e d68d a33e 7d02 833d
000000e0: e564 443e 4781 86bc 740c e13e 17a5 7ebe
000000f0: 4f72 053c 3c9b a5be 0110 5f3d b7d1 a6bd
00000100: 4c2a 9e3e f769 e9bc 8712 cc3e 1dd1 a7be
00000110: d42f a0be feab 8fbe 4905 bf3e 0f87 223e
00000120: 2f4c 053f c96c 97be 7941 f5be 33ca 17bf
00000130: ce0b debd 8006 d03c 70c1 283e 4859 ba3e
00000140: 66fa 4fbe 9410 d2be 5c69 bf3e 4c50 ab3c
00000150: b644 cf3e 5024 9ebc 328f ab3e efef dcbe
00000160: f04d a3be 2cae 383d e882 203e 689c 873b
00000170: fe95 9f3e 7ae3 b63e 8583 97be 850b b8bd
00000180: 3412 c93e cddf 93bd 6cfa 10be 7415 16bf
00000190: b87c 82be 3c31 993c 6faa 49bd 0417 09bf
000001a0: 3ffb b9bd 6d9a 09bf 5837 87be 000d ee36
000001b0: 9ff0 dfbe 3635 7cbe bf91 363f 5ed9 953d
000001c0: d632 723c b70c 21bf 56de a1be e454 5ebe
000001d0: 9a01 b7bc 42b9 fdbe 8cc4 90be 63a7 aabe
000001e0: db49 27bc a0c8 82be 308a 5f3d e50d 0cbf
000001f0: 12e4 c5be 0774 a9be d73f 1cbe 971d 08bf
00000200: 021b e33e 7798 1fbe e2c3 123f eaa2 8c3d
00000210: 7185 10bf 5624 b73e e12d babd ff62 dfbd
00000220: 9200 bebe fb24 aabe df44 9b3e 021d 9a3c
00000230: 3b17 dabb 20b6 19be d0c3 d73e 5b4a 24be
00000240: c02c b7bc 3e4f 313d 8cae 733e 971d 923e
00000250: b56c 0a3f 5679 f9be 91a6 573e 7b99 31be
00000260: e23c a6bc a31a 9bbe b29c ed3e f910 c0be
00000270: 9d09 893e 908d b23d ce97 f83d 2e81 23be
00000280: e44a c63e 2e51 ee3d 1eb1 a43d 2789 23bf
00000290: d4ac 053d c47a aa3c bb2e 92be 45ca 093f
000002a0: 7d12 8f3d e14f d1be 4693 43be 1bd9 813a
000002b0: 780a c43e efbc 96bd 661d a7be 999a 69be
000002c0: 1aca f4be 7200 10bd 225b d33e ef59 0dbf
000002d0: 2116 413e 85d4 883e b63a 8f3d 9fb4 d5bd
000002e0: d0e4 873e 6119 b53e 3f4b c23d f182 bb3c
000002f0: 778d ecbd 37e6 1d3d c81f ecbc 38bc 29bd
00000300: 17af ad3e 5421 0f3f 2c9d 92bd 0c74 11be
00000310: 1e0e 293c fcee 2cbd ba38 853e 5f67 04bd
00000320: 5b28 16bf 07b7 bdbd b7d4 033f 1476 5a3e
00000330: b0d5 84bc 5a75 bfbe 00e2 92be 0320 b2be
00000340: 5fe3 0abe 5f56 1c3e 71e1 9e3e 29df 503e
00000350: 30ec 20bf 45bf 98bd dc7e acbd 27aa 2a3f
00000360: cdd9 063a b0a1 c6bc 0824 853e a92e ec3c
00000370: 95d9 bebe 4d8e bc3e dab3 51be 8cf9 4fbe
00000380: 822d a4be e7c8 6d3e 0148 2b3e 2cf3 433e
00000390: c420 ccbe fc2c f3be 1bf3 e9be c636 c73e
000003a0: 9ce1 353e 6a35 063f e902 4f3e 89f8 373d
000003b0: 0212 2e3c 1e4a 18bf 7998 a3be d7a5 01bf
000003c0: 62ae 9b3e e345 39be f7d8 32bc be9f 8cbe
000003d0: 080c a0bd 092a edbe 43cc 9cbe 6dc4 183e
000003e0: c66b 31be c63a 073f 4c18 28be 5a7f 05bf
000003f0: a802 9ebd 84cf 1cbe 645b 2dbe 26f9 23be

mlp_net.0.bias f4 [400]
-0.41306993 0.1592499 -1.0601841 0.34651077 -0.42194706 -0.5740989 0.22240262 0.3654195
0.80646145 -0.6816764 -0.6259234 0.12018372 0.056496914 -0.027858641 0.40793464 -0.18814948
0.5375854 0.30673462 -0.32307917 0.7531382 -0.05790628 0.11530541 -0.46916118 -0.404468
-0.19559132 0.11417786 0.27878606 -0.64535207 0.36555627 -0.4326858 0.7285881 -0.11748826
-0.728972 -0.5696241 -0.6188309 -0.035377793 -0.51677954 -0.31836745 -0.15599975 -0.6967052
0.1303975 -0.9119645 -0.6682209 -0.730311 -0.36908263 -0.4900972 -0.14515017 -0.38247472
0.011297034 0.42246696 0.15559213 -0.4133347 -0.55077016 -0.03531059 -0.5381923 0.42479965
0.5756306 0.05872709 1.0569407 0.5413004 0.1863636 -1.1622319 0.50037736 -0.3621517
-0.13367978 0.7363859 0.5083741 -0.0029649453 -0.3729604 -0.6665769 -0.22055016 0.510462
0.028120376 -0.13641231 -0.13982958 -0.3039005 0.6592079 0.07340896 0.45321333 -0.10820578
0.071641386 0.41242203 0.09284229 0.36203778 0.23814149 0.42560452 0.5540719 -0.2027657
-1.1215953 0.16330603 -0.048371274 -0.26331237 -0.11023761 -0.201197 0.2522285 0.031170433
-0.3468904 -0.37108275 -0.17510177 -0.62944925 0.6312571 0.22681963 0.7727567 -0.20115486
0.08865054 0.20526804 -0.80949056 0.05737134 -0.086801134 -0.60537434 -0.67384976 0.45233896
0.20331627 -0.3563033 0.5054758 -0.4252808 -0.13927083 0.1842017 -0.1787319 -0.5295753
-0.691062 0.20040335 -0.47463498 -0.23340638 0.62674636 -0.26645887 -0.40001106 0.053952795
-0.32503304 -0.06591233 0.4030059 -0.46421832 -0.5407573 -0.39572787 -0.10925807 -0.24377836
-0.8330838 0.26197496 0.016632237 -0.18899293 -0.7483821 -0.29878342 -0.7080821 -0.3730757
-0.7880128 0.16385582 -0.5942499 -0.84517604 -0.66418546 -0.0039931736 -0.49537373 -0.41975942
0.32523966 0.14558344 0.19505917 -0.9804345 -0.5622207 -0.36911878 0.19532709 -0.018029533
-0.5653874 -0.20137668 -0.6245131 -0.26355612 -0.31631535 0.036021616 0.19158228 -0.15421781
0.07142385 -0.35050482 -0.02266938 0.056561057 0.1335863 -0.3928293 0.34371945 -0.39604697
-0.28417978 0.3005655 0.6854467 0.45683616 0.026602782 -0.2402024 0.5523409 0.46526876
-0.8818124 -0.15758964 -0.4922833 0.034294188 0.18208867 -0.23947927 -0.39018044 -0.100944065
-0.3449194 -0.69024664 0.5725861 -0.9198095 -0.40124628 -0.062018726 0.016296232 -0.7458748
0.28836805 -0.32119018 -0.6286796 -0.32594952 -0.37604058 -0.46654168 -0.44884732 -0.47524232
-0.3227362 -0.5169342 0.16416398 -0.71931595 -0.4887174 -0.00028179266 0.0041588303 0.40056828
-0.62125456 -0.113336675 0.25509116 0.03072105 -0.7937277 -0.3276683 -0.7232942 -0.48860988
0.30419964 -0.0003672461 0.26436263 -0.78121525 0.05143207 -0.18684839 0.32463682 -0.4451548
-0.32919487 -0.75963396 -0.35923943 0.048933614 0.41563657 -0.53737295 -0.04735213 -0.22080818
-0.7112327 0.43837476 -0.32721406 -0.15770009 -0.32717338 -0.22163512 0.18995366 -0.001738159
0.16288203 -0.47762465 0.79841423 -0.08738665 -0.6510219 -0.33349645 0.6519609 -0.043379858
00000000: e77d d3be 6812 233e 1db4 87bf dc69 b13e
00000010: 7209 d8be 25f8 12bf 83bd 633e 4418 bb3e
00000020: 4274 4e3f 5882 2ebf 843c 20bf e222 f63d
00000030: 4f69 673d ce37 e4bc cfdc d03e 42aa 40be
00000040: 329f 093f 520c 9d3e a26a a5be aacd 403f
00000050: 232f 6dbd 3e25 ec3d e535 f0be 6e16 cfbe
00000060: 1749 48be 15d6 e93d 0cbd 8e3e cb35 25bf
00000070: 312a bb3e fe88 ddbe c084 3a3f af9d f0bd
00000080: e99d 3abf e3d2 11bf b46b 1ebf 4ee8 10bd
00000090: aa4b 04bf 0f01 a3be 66be 1fbe 465b 32bf
000000a0: ec86 053e 8176 69bf 8610 2bbf a9f5 3abf
000000b0: 66f8 bcbe 05ee fabe 3fa2 14be bad3 c3be
000000c0: 3217 393c 974d d83e 8b53 1f3e 9ba0 d3be
000000d0: 46ff 0cbf d6a1 10bd f8c6 09bf 577f d93e
000000e0: 875c 133f d18b 703d d549 873f aa92 0a3f
000000f0: 19d6 3e3e 04c4 94bf bb18 003f f36b b9be
00000100: 5ae3 08be c983 3c3f ce24 023f 874f 42bb
00000110: aaf4 bebe c9a4 2abf e7d7 61be a3ad 023f
00000120: b45c e63c abaf 0bbe 7c2f 0fbe d998 9bbe
00000130: d9c1 283f 7057 963d 940b e83e fe9a ddbd
00000140: b8b8 923d fb28 d33e 1924 be3d 045d b93e
00000150: 5ddb 733e d6e8 d93e a8d7 0d3f d0a1 4fbe
00000160: 6f90 8fbf b239 273e f520 46bd e1d0 86be
00000170: 42c4 e1bd 9606 4ebe 1824 813e 2359 ff3c
00000180: 9e9b b1be 8ffe bdbe e14d 33be 9623 21bf
00000190: 119a 213f 6843 683e 62d3 453f 8afb 4dbe
000001a0: 6a8e b53d c931 523e c63a 4fbf 36fe 6a3d
000001b0: cbc4 b1bd d0f9 1abf 6b81 2cbf f998 e73e
000001c0: 2432 503e 636d b6be dd66 013f 68be d9be
000001d0: 039d 0ebe 5f9f 3c3e 7f05 37be 3f92 07bf
000001e0: 70e9 30bf 8936 4d3e 5b03 f3be 1502 6fbe
000001f0: 7372 203f 4c6d 88be 40ce ccbe 9bfd 5c3d
00000200: bb6a a6be 0bfd 86bd ca56 ce3e 06ae edbe
00000210: 126f 0abf d89c cabe b2c2 dfbd 09a1 79be
00000220: fb44 55bf 9521 863e 5440 883c 5d87 41be
00000230: f895 3fbf 24fa 98be de44 35bf c703 bfbe
00000240: 35bb 49bf d2c9 273e c320 18bf 755d 58bf
00000250: 0f08 2abf 2bd9 82bb a0a1 fdbe b5ea d6be
00000260: d085 a63e d313 153e 97bd 473e c1fd 7abf
00000270: b2ed 0fbf 23fd bcbe d303 483e acb2 93bc
00000280: 3bbd 10bf b035 4ebe 17e0 1fbf d4f0 86be
00000290: 16f4 a1be 678b 133d 252e 443e 46eb 1dbe
000002a0: ab46 923d 5e75 b3be 23b5 b9bc 91ac 673d
000002b0: d9ca 083e ec20 c9be fffb af3e abc6 cabe
000002c0: 0380 91be b9e3 993e 6f79 2f3f 6ee6 e93e
000002d0: 14ee d93c 9ef7 75be 3766 0d3f b537 ee3e
000002e0: 75be 61bf 2e5f 21be 8f0c fcbe 1078 0c3d
000002f0: 7475 3a3e 0e3a 75be bbc5 c7be c3bb cebd
00000300: 4799 b0be 01b4 30bf 0195 123f a378 6bbf
00000310: 2770 cdbe 5907 7ebd ad7f 853c a7f1 3ebf
00000320: faa4 933e 0a73 a4be 25f1 20bf dbe2 a6be
00000330: 6488 c0be 8dde eebe 51cf e5be f652 f3be
00000340: ae3d a5be cd55 04bf 9a1a 283e 1725 38bf
00000350: 2b39 fabe 92bd 93b9 cc46 883b 4917 cd3e
00000360: 8a0a 1fbf 0f1d e8bd 4f9b 823e b6aa fb3c
00000370: bd31 4bbf 24c4 a7be cf29 39bf 132b fabe
00000380: 0ec0 9b3e f08a c0b9 8a5a 873e b9fd 47bf
00000390: 6faa 523d 2f55 3fbe cc36 a63e 54eb e3be
000003a0: 3b8c a8be 5f77 42bf 3bee b7be 9d6e 483d
000003b0: 51ce d43e 4691 09bf 4ff4 41bd 8a1b 62be
000003c0: 5913 36bf a872 e03e 9a88 a7be 227c 21be
000003d0: 4583 a7be 51f4 62be 3683 423e f0d2 e3ba
000003e0: 8cca 263e 388b f4be e064 4c3f c6f7 b2bd
000003f0: 5fa9 26bf 0cc0 aabe e9e6 263f 14af 31bd

mlp_net.2.weight f4 [1, 400]
-0.022419149 -0.047002155 0.63989615 0.046388745 -0.016269289 -0.1628348 0.0654348 0.03379093
0.09128851 0.11406483 0.16786946 -0.041446466 0.0317697 0.0025828823 -0.12267237 0.04095252
0.08526708 -0.037302513 -0.04043327 0.21941072 -0.00032833748 0.021075457 0.04632013 -0.15279184
0.020275358 -0.067035034 0.0328486 -0.098117225 0.0537252 -0.026223166 0.14918952 0.008017247
-0.23869354 0.032086153 0.020891273 0.03157131 -0.017465804 0.030492643 0.0032510953 -0.024837302
-0.02906331 -0.13054755 -0.0863142 0.03960552 0.05128408 -0.08475029 -0.0005122162 -0.009451354
0.02855792 -0.05429992 -0.02572456 -0.10567563 -0.11932159 -0.0061787935 -0.016450986 0.11315525
-0.07820028 0.017058672 0.16107234 -0.05311673 -0.06716565 0.43977016 -0.04149034 -0.028606903
0.019402264 0.09288621 -0.05660916 0.0070967674 0.007270723 -0.15655361 -0.0030440022 0.024057433
-0.006243047 0.014946014 -0.043734193 0.053449374 0.11639505 0.027630808 0.029740632 0.015821943
0.030437196 -0.106352486 0.010212969 -0.046250265 -0.054480135 0.001922283 0.06968944 -0.027472178
0.20042358 0.04100102 0.0585928 -3.5502206e-05 0.057948004 -0.004067756 -1.8132252e-05 0.0015020064
-0.033175178 -0.059938155 0.010120273 -0.2590954 -0.066120155 0.05449131 0.14883892 0.01867774
-0.02112414 0.024842342 0.08180422 -0.07309025 0.0072611505 -0.032390647 0.03256193 0.021226062
-0.008201697 -0.00054891204 0.008378368 -0.0030633863 -0.033254236 0.022608547 -0.13277192 0.022042064
-0.039919842 -0.042383377 -0.08822733 0.040058136 -0.088210344 -0.053493887 -0.016391 -0.0050687366
-0.032889195 0.0809099 -0.026790349 -0.0015440219 0.042854685 0.03793096 -0.08330826 0.022987923
0.13378474 0.052269604 0.042297218 -0.010151898 -0.05687805 -0.06944406 0.12240729 0.03693172
-0.093375705 -0.06770958 -0.024385639 0.13541122 0.08642814 -0.003597075 0.04701829 0.02450414
0.019158714 -0.019361375 -0.009750236 -0.056934867 -0.022684557 -0.010045971 -0.025146734 -0.0070014955
-0.04422267 0.016484583 -0.0061622974 0.038891573 0.06383396 0.007159399 -0.045612093 -0.01823833
0.039594993 0.08032592 -0.0007331856 0.043886922 -0.033129737 -0.08013449 -0.01484773 -0.027732207
0.0760444 -0.031244256 0.084923446 0.014707456 0.026847376 -0.0026495669 0.08688447 -0.08343559
0.12462516 0.0142515525 -0.04924036 0.01577285 -0.027053153 -0.021820221 0.011087486 0.012771761
0.0044499035 -0.0028262727 0.0663897 0.29785147 0.0041603195 0.003062448 -0.05698198 -0.03605002
-0.038693037 -0.0465927 -0.0939955 -0.0022079563 -0.040229958 -0.02123417 -0.08111737 -0.010393847
-0.039489865 0.023306787 -0.05660013 0.050446488 -0.08603415 -0.097955726 -0.013584771 0.039533168
-0.08139011 0.00016275916 -0.028792541 -0.0025680256 -0.111348085 -0.020547384 -0.049793623 -0.02430663
0.036096968 -0.13579407 -0.03605202 -0.45841682 -0.04890146 -0.06748861 0.06793612 -0.013918892
0.033779196 0.09851825 -0.0067606713 -0.0037479738 0.07116803 0.05396767 -0.036497004 0.009550331
-0.124278605 -0.04066533 0.0044984557 0.002742574 -0.039535515 -0.015333357 0.038191356 -0.0007323122
-0.058622934 -0.023604238 0.13455498 -0.073870875 0.025184218 0.07316289 0.11195461 -0.12800737
00000000: 5da8 b7bc 5585 40bd 3cd0 233f 2002 3e3d
00000010: 2c47 85bc 2abe 26be ae02 863d 5c68 0a3d
00000020: 78f5 ba3d d29a e93d f9e5 2b3e c5c3 29bd
00000030: f220 023d 9345 293b a73b fbbd d4bd 273d
00000040: 82a0 ae3d 85ca 18bd 5b9d 25bd 34ad 603e
00000050: b624 acb9 70a6 ac3c 2dba 3d3d 7775 1cbe
00000060: 8218 a63c aa49 89bd 418c 063d aff1 c8bd
00000070: f50e 5c3d f7d1 d6bc 23c5 183e c55a 033c
00000080: 146c 74be c56c 033d 2d24 ab3c eb50 013d
00000090: 7214 8fbc b5cb f93c 5410 553b 9977 cbbc
000000a0: 2e16 eebc 42ae 05be 80c5 b0bd 6639 223d
000000b0: 410f 523d 8f91 adbd 3f46 06ba dad9 1abc
000000c0: 4df2 e93c 9869 5ebd 50bc d2bc 776c d8bd
000000d0: e15e f4bd 7a77 cabb 38c4 86bc f1bd e73d
000000e0: 7827 a0bd a1be 8b3c 26f0 243e ee90 59bd
000000f0: 258e 89bd 8e29 e13e c6f1 29bd 0659 eabc
00000100: 7ff1 9e3c 203b be3d 02df 67bd 008c e83b
00000110: 3f3f ee3b 974f 20be e27d 47bb 1814 c53c
00000120: 7992 ccbb 20e0 743c a022 33bd bbed 5a3d
00000130: 8760 ee3d 015a e23c a0a2 f33c 059d 813c
00000140: 6d57 f93c 55cf d9bd 4c54 273c eb70 3dbd
00000150: 9026 5fbd 1df5 fb3a 56b9 8e3d 550d e1bc
00000160: d73b 4d3e b0f0 273d 01ff 6f3d 34e8 14b8
00000170: e35a 6d3d cf4a 85bb b71a 98b7 f9de c43a
00000180: b2e2 07bd b681 75bd 80cf 253c 27a8 84be
00000190: 016a 87bd 4832 5f3d 3b69 183e 0f02 993c
000001a0: 880c adbc 2b82 cb3c f988 a73d 57b0 95bd
000001b0: f2ee ed3b 0eac 04bd a95f 053d 47e2 ad3c
000001c0: 6960 06bc dde4 0fba 6c45 093c 18c3 48bb
000001d0: 9835 08bd 8f35 b93c 5df5 07be 8f91 b43c
000001e0: fd82 23bd 319a 2dbd 88b0 b4bd 0014 243d
000001f0: a0a7 b4bd 681c 5bbd 6b46 86bc a517 a6bb
00000200: d2b6 06bd 17b4 a53d 6f77 dbbc c760 caba
00000210: 6588 2f3d 7f5d 1b3d 859d aabd 2b51 bc3c
00000220: defe 083e a718 563d d93f 2d3d 2554 26bc
00000230: f5f8 68bd b038 8ebd acb0 fa3d b745 173d
00000240: c33b bfbd 52ab 8abd 64c4 c7bc 3da9 0a3e
00000250: 3d01 b13d e7bc 6bbb 4096 403d e8bc c83c
00000260: bcf2 9c3c bf9b 9ebc 74bf 1fbc 8934 69bd
00000270: f7d4 b9bc db97 24bc 8600 cebc cd6c e5bb
00000280: d522 35bd ad0a 873c 19ed c9bb c54c 1f3d
00000290: 61bb 823d 6499 ea3b bfd3 3abd 8d68 95bc
000002a0: 5c2e 223d ea81 a43d 4133 40ba c6c2 333d
000002b0: 0cb3 07bd 8d1d a4bd e543 73bc a72e e3bc
000002c0: 2bbd 9b3d f4f3 ffbc 58ec ad3d 8bf7 703c
000002d0: 07ef db3c 5ba4 2dbb 7cf0 b13d 47e0 aabd
000002e0: 7a3b ff3d 587f 693c 42b0 49bd 1036 813c
000002f0: 939e ddbc 52c0 b2bc 49a8 353c a640 513c
00000300: 7fd0 913b fd38 39bb 53f7 873d fd7f 983e
00000310: 4a53 883b 5ab3 483b f065 69bd 30a9 13bd
00000320: 977c 1ebd fdd7 3ebd b680 c0bd 5cb3 10bb
00000330: 2bc8 24bd 48f3 adbc dd20 a6bd f44a 2abc
00000340: 20c0 21bd e0ed be3c 8ad5 67bd faa0 4e3d
00000350: ac32 b0bd 039d c8bd a992 5ebc 88ed 213d
00000360: dcaf a6bd 54aa 2a39 56de ebbc 524c 28bb
00000370: 770a e4bd fd52 a8bc 66f4 4bbd b31e c7bc
00000380: 6ada 133d 9a0d 0bbe 48ab 13bd 9cb5 eabe
00000390: e64c 48bd 7837 8abd 1822 8b3d 100c 64bc
000003a0: 0e5c 0a3d f0c3 c93d 9f88 ddbb 91a0 75bb
000003b0: 8bc0 913d 340d 5d3d e27d 15bd fe78 1c3c
000003c0: c885 febd b090 26bd c867 933b c2bc 333b
000003d0: feef 21bd c338 7bbc 8a6e 1c3d a4f8 3fba
000003e0: 9a1e 70bd ad5d c1bc c8c8 093e 9d49 97bd
000003f0: 224f ce3c 6dd6 953d 7548 e53d 5d14 03be
