sutskever-implementations/03_lstm_understanding/checkpoints/models/lstm_init_weights.npz (npz, 14328 bytes, 10 tensors)

Wf f8 [16, 21]
0	0xbf6269ac1020e163	-0.0022476540189268353
1	0xbf87f6c31e5d277a	-0.011701130260593596
2	0xbf9273c899e5c3c0	-0.018019804375800197
3	0x3f762da5f18af4f5	0.005414627282047881
4	0x3f7f18519dc639e5	0.007591551603026468
5	0xbf779d2652b540b1	-0.005765104007267195
6	0xbf9a88430c4ae888	-0.0259104229214491
7	0xbf765fc9c689ded6	-0.005462444482524828
8	0x3f700c5cde57e3c3	0.003918040054025465
9	0xbf8e49c181b99169	-0.014789115687741288
10	0x3f5e0aac25a9c393	0.0018335991977915563
11	0xbf24112207b4406a	-0.00015309849172995559
12	0x3f77ba4fc74d4f93	0.005792914996010884
13	0x3f5397906dd0104a	0.0011958036841415325
14	0xbf83edaf063a27e2	-0.009730689408815555
15	0x3f88817b155ba3ca	0.011965715016644913
16	0xbf59f93654394aa4	-0.0015852957302697002
17	0xbf31e4f10ad28857	-0.00027304539509931863
18	0xbf831d030d028a58	-0.00933267959073196
19	0xbf722826bb7b7c68	-0.0044328225119151035
20	0xbf821eea199cd3c6	-0.00884802714026901
21	0xbf5c55e22da8dcee	-0.0017294605992342299
22	0x3f9187241db32bf1	0.017117084801423436
23	0xbf8c18b68b60fa12	-0.013719011429313564
24	0xbf9085dab95bd6c5	-0.01613561397876741
25	0x3f8e212b637975bb	0.014711703274936086
26	0xbf6125d5ef3f2353	-0.002093236771518661
27	0xbf7b67bc74fd8593	-0.0066907273865991655
28	0x3f854c1871dda903	0.010399046873960765
29	0xbf78ce56d5f0673b	-0.006056155397368641
30	0x3f92b2c660131238	0.01826009713546936
31	0x3f7bc49167713b83	0.006779258713392691
32	0xbf73fc1f369cec01	-0.004879114081457026
33	0x3f96174108ef4895	0.021573082132655037
34	0xbf78cf619d9989d6	-0.006057149230033384
35	0x3f7e656f1886e0d8	0.0074209537200930695
36	0x3f68849ece547ca0	0.0029929258040649193
37	0x3f8aa8df95440215	0.013017412893987982
38	0x3f8ffad0d9c8498e	0.015615111967268527
39	0x3f34f967bc594f6c	0.00032004149065766626
40	0xbf7edc28b2232d72	-0.007534178703461835
41	0x3f72d72851c25622	0.004599721429391164
42	0xbf7bc25c57da646e	-0.006777153697521061
43	0x3f949df94f4adb85	0.02013387247526623
44	0x3f565eb4f451bcf2	0.0013653533108273744
45	0xbf6ded5924ee587c	-0.003653215513121087
46	0x3f5e420daf4c9ad5	0.0018468030586490842
47	0xbf8b96d24c91a6b3	-0.013471262895296965
48	0xbf83e60e49943a91	-0.009716140385106516
49	0x3f8895a0461a5060	0.012004139079444254
50	0xbf7ae8092737c5e3	-0.006568942789713958
51	0xbf8570d422986a51	-0.010469109826819397
52	0x3f75fb36436d145f	0.005366527525272862
53	0x3f8848812d5c579c	0.01185704154662997
54	0x3f7d72c59910afca	0.007189533106650667
55	0x3f84662892dd0799	0.009960476858058164
56	0xbf7eff9258d42473	-0.0075679508856946074
57	0xbf8d1e61f92e49d2	-0.014218106667418438
58	0x3f8ebf4fead7b795	0.015013336519554868
59	0xbf6a6f163191dc49	-0.0032267983884213575
60	0xbf648c5980c72f60	-0.0025083301645504735
61	0x3f8b339000288f77	0.01328194141849058
62	0x3f76c87e8fe8a2ff	0.0055623000940065994
63	0x3f72ac546b7a56f0	0.004558877720816076
64	0x3f962b6c7aaf3dee	0.02165002344901084
65	0xbf7a5bc7189e3555	-0.00643518230380143
66	0x3f83008df07b6644	0.009278401280812372
67	0x3f42ae9b88cd0afc	0.000570131248970845
68	0x3f6600c9d12d1f20	0.0026859227886325693
69	0x3f8f4d93985a533b	0.015284684264125317
70	0x3f74cd0b3a6689a3	0.005078357562896238
71	0x3f760c7188d03543	0.00538296079049633
72	0x3f85f706fb13c6be	0.010725073373098023
73	0xbf6de59d0c26b7ad	-0.0036495272954288533
74	0xbf812fe0260e8056	-0.008392096673390064
75	0xbf8565cf2982abfa	-0.010448091940210336
76	0xbf9422af91beea34	-0.01966356589376002
77	0x3f950e393f13697b	0.020562071299403222
78	0xbf8697fd341da8ee	-0.011032083657216831
79	0xbf62200658c67118	-0.00221253623585772
80	0xbf66ad3216704acf	-0.0027681329988892066
81	0x3f692ec9245f2537	0.0030740669780910074
82	0x3f80b4cff3ffb91f	0.008157372125392968
83	0x3f819f5bf7538fb3	0.008604734883597453
84	0xbf77e20294c01025	-0.0058307743856893844
85	0xbf5b6197bce7b010	-0.001671217137864115
86	0x3f6726218eac3d97	0.0028257995048829965
87	0xbf645f6e5134536f	-0.002486911261835471
88	0x3f90758f5b4b8823	0.016073455760199928
89	0x3f741c3ed9abaec3	0.004909749516382514
90	0x3f7e19c08938f821	0.007348777860498174
91	0x3f7b26d05b358e6a	0.006628812686674127
92	0x3f880861f33fb3a4	0.01173473857485325
93	0x3f5da8982faea1a4	0.0018102155870370696
94	0xbf8a8f226063e887	-0.012968319479558467
95	0x3f705f082d0570bc	0.003996879517526416
96	0xbf7aadf8d918fcda	-0.006513568937918291
97	0xbf75a6f299a33c55	-0.005286166817497569
98	0x3f780478ed74e90c	0.005863640187550933
99	0x3f895c2b67998e93	0.012382830714336357
100	0x3f2be18e873fa340	0.0002127157673606165
101	0x3f694cb29c7df805	0.003088330125989638
102	0x3f916e411cb8055e	0.01702214944635238
103	0x3f63b8f5ca56f391	0.002407531794885683
104	0x3f9aa427fb993158	0.026016831141803948
105	0x3f7729cc655e9e6f	0.005655096456315441
106	0xbf9207bbe2a9def8	-0.017607627591558178
107	0x3f7edb5c040eba95	0.0075334162110453256
108	0x3f6f39787f40f05c	0.0038115838488277775
109	0x3f8a6a04d7e59b9f	0.012897527540827456
110	0x3f7b92d16e13b984	0.006731813512699584
111	0xbf56af43ced03591	-0.0013845598398377382
112	0xbf8912d946d543b7	-0.012242982362893657
113	0xbf611f891153b637	-0.0020902325728602528
114	0xbf816b2d3ad527f2	-0.008505204542093001
115	0xbf77c73ac5091bd7	-0.005805234498047227
116	0x3f781bb11fb2edc9	0.005885784044206096
117	0x3f91198df1586544	0.016699045043514063
118	0x3f702a6e521ecd36	0.003946715298229811
119	0xbf887ddf134d71b8	-0.011958830620351843
120	0x3f7235ff3327b98a	0.004446026682201407
121	0x3f8881cb980a61c9	0.011966314866456511
122	0xbf78fa098512e8b0	-0.006097829043193823
123	0xbf55f5165eb23812	-0.0013401716667291769
124	0x3f23408a51ea7257	0.00014688194729197093
125	0xbf801320aed47489	-0.0078489831308224
126	0x3f7a8db689eb5bdf	0.0064828043384385905
127	0xbf53d0eedb616e42	-0.0012094814860778157
128	0x3f712f1dd430cf3d	0.004195324439070278
129	0xbf822d03d6544ad7	-0.008874921778021001
130	0xbf71eb152eeba26b	-0.004374583003234104
131	0x3f7d96b7b1233d71	0.007223813578277714
132	0xbf6e8ae0be6e7cfc	-0.0037283315209176698
133	0x3f91af21d27f32b3	0.01726963851233405
134	0xbf705e7d379a20e5	-0.003996361856146023
135	0x3f6267faefaf50b6	0.0022468472575188593
136	0x3f83197639e023f1	0.009325908318730898
137	0xbf8d0c5242efe969	-0.014183657329330317
138	0xbf9207daca7a8845	-0.01760808811980776
139	0xbf8f3ed53e14c69e	-0.015256563145700949
140	0x3f89db93b29d10d8	0.01262584103427182
141	0xbf769aa6ee2ea9f6	-0.005518581458924468
142	0x3f9a322a7abe6b87	0.025581992856682525
143	0xbf771c909d4af520	-0.005642475986573886
144	0x3f5e3ca48777449b	0.0018455130319703697
145	0x3f8f9518f10c9917	0.015421099525678756
146	0x3f948ada25e53012	0.02006092888159123
147	0x3f951c1ba1b08a91	0.02061503576636398
148	0x3f88bf51b35bebd6	0.012083662305931425
149	0x3f84f9097497f2f5	0.010240625258114625
150	0x3f7845186b02c640	0.005925269492011831
151	0x3f7fe1b51aa88dae	0.007783610761666377
152	0xbf769399e41ac33b	-0.005511857163285334
153	0xbf80c1b7f3ac7e4b	-0.008181988834223072
154	0xbf01b11ebcdcb4d3	-3.374457410952052e-05
155	0xbf5be20f78564a40	-0.0017018462252492844
156	0xbf729070c7eb21bc	-0.004532280493272752
157	0x3f7c8626d1f28b8a	0.006963874474567153
158	0x3f83908cf247dc3b	0.009553052085705107
159	0x3f4cf81b6d444bf7	0.0008840688629184736
160	0x3f8e42834e28b9e1	0.014775300810552618
161	0xbf8761bd30979b07	-0.011416891141335051
162	0xbf5fbaaa9c446469	-0.0019365945927971812
163	0xbf7d5c6d43d85877	-0.007168223206028049
164	0xbf931d038515a90c	-0.0186653661707306
165	0xbf4b17c23561f964	-0.0008268068584269925
166	0xbf53f275eacce9af	-0.0012174750838328354
167	0x3f8efed5dc1bf22c	0.01513449743242131
168	0x3f79d68a38d0ca83	0.006308116845547776
169	0xbf84f9b0493d31e5	-0.01024186824329205
170	0x3f92fc6475724ca5	0.018540925663341885
171	0x3f8901bbaf2ae9ff	0.01221033695525353
172	0x3f77d7bc9fea78cc	0.005820977034686158
173	0xbf628db73f3d5cea	-0.0022648409884983194
174	0xbf83a6398b89c27c	-0.009594392367234798
175	0xbf6e7dbde9c8af5c	-0.00372206776071053
176	0x3f864c2da9372f92	0.01088748619704186
177	0x3f934c547604e69d	0.01884586305934609
178	0x3f8f9b0a66b206cd	0.01543243528272189
179	0xbf7405f52cadb177	-0.004888494217862741
180	0xbf86ee0514ccf583	-0.011196174332890113
181	0x3f5715328eae7508	0.0014088624691120395
182	0xbf921bdb919a2070	-0.017684393655628516
183	0x3f6a79517455bf23	0.003231677141847815
184	0xbf582ee6b3d0203b	-0.0014760258629866868
185	0xbf7316bf357b8ca7	-0.0046603650186824224
186	0xbf90546b1cd46551	-0.015947030672667954
187	0x3f75097cc9c0103a	0.005136001065697166
188	0xbf75d1c5ed957d58	-0.005327008396619114
189	0xbf87f5bbcbdf8c9e	-0.011699168357102881
190	0xbf9d69768adcfdfb	-0.028722622132816494
191	0xbf32083c2c673cce	-0.0002751490505063626
192	0x3f9225d9e9eb5191	0.017722515966697442
193	0x3f9102e42fddd0fa	0.0166125921454787
194	0xbf72b9006bb4b7d3	-0.004570962565862718
195	0xbf78aaa6b0b8c156	-0.006022120603617806
196	0x3f7333744fd90b96	0.004687742560750238
197	0xbf84726a40cf2e98	-0.009983854391882915
198	0x3f68b908ecc66f9f	0.00301791899819466
199	0x3f7f60ef16af03c5	0.007660802783846903
200	0x3f8920a9e5ad3d3f	0.012269332238843076
201	0xbf5068c43525ae0f	-0.0010015407647995277
202	0xbf60af591ebd8ab3	-0.0020367375017696586
203	0xbf81fb2847b9e52a	-0.008779825867565611
204	0xbf80ef3c0643b57d	-0.0082688035403986
205	0xbf628d9b4add4bfa	-0.0022647889190152677
206	0x3f6e18368bfc3a43	0.003673655068161781
207	0x3f82b5d087581161	0.009135846262332494
208	0xbf8072f88a14a323	-0.00803178950680345
209	0x3f8e91fcaef18b81	0.014926885689595217
210	0xbf6635dfbfe37532	-0.0027112360104256878
211	0xbf2c01ac9bcdea7e	-0.00021367294348436158
212	0xbf7e9b1514054a33	-0.007472116791478234
213	0xbf98d300196bb670	-0.024242402602729418
214	0x3f821af1a53e7721	0.008840453963610497
215	0x3f7e2e5e46716d12	0.007368438970924334
216	0xbf670bddd254e4c1	-0.0028132755711821338
217	0x3f45f396b2b5813c	0.0006699071722487192
218	0x3f752203caae9c13	0.005159392177040994
219	0xbf90001ec62732de	-0.01562545856886543
220	0xbf75ab84f787b95e	-0.0052905267734629485
221	0x3f80443c01de1409	0.007942646796218271
222	0xbf89b016c42daeee	-0.012542894231692494
223	0x3f680c5b25cdc9b3	0.002935579321666293
224	0xbf8bc86546d105d0	-0.013565818046234052
225	0x3f731adf7344a490	0.0046642998243352635
226	0xbf375ba6022c2ca9	-0.0003564148229748357
227	0xbf9089f89d1f29b6	-0.016151318159055093
228	0x3f87da96b2dc5158	0.011647393544571713
229	0xbf7e16c03fb8ebff	-0.007345915767980492
230	0xbf80980e697a7e03	-0.00810252437014381
231	0x3f606e3dada9517a	0.0020056919723094287
232	0x3f87862af40f92fb	0.011486373494287152
233	0xbf84cdd4f74939a4	-0.01015821818978397
234	0x3f443614b0895f77	0.0006167984984797166
235	0x3f719077872f4ee3	0.00428816500330573
236	0x3f7c63bd328a02f8	0.0069310560726314405
237	0x3f5ce87ec6201f49	0.0017644155527722519
238	0xbf6e1121b4fcacfa	-0.0036702783908332233
239	0xbf80f2f4ca92f534	-0.008275902206487197
240	0x3f4c3a45cd5b3813	0.0008614388304637475
241	0xbf85f5189f75a2c1	-0.010721390119856069
242	0xbf9dea251f787455	-0.029213504834946075
243	0x3f71e1a94d0e8e18	0.004365598041576678
244	0x3f828338ce6a16fd	0.009039348410861953
245	0xbf9832491d5517b5	-0.023629324355418386
246	0xbf84ade59c5c151e	-0.010097307047099376
247	0x3f795c4d9059f6a3	0.006191542610051978
248	0x3f951199d629c73a	0.02057495469711699
249	0x3f2b4135e37945c4	0.00020793707675407895
250	0xbf7dd1aa03d5d98d	-0.007280029412291345
251	0xbf5df73b952f1dec	-0.0018289644110484017
252	0x3f8c284fe480ad3c	0.013748764191481848
253	0xbf7a756ce3cbdf75	-0.006459641791245353
254	0xbf805e115a8b01ce	-0.007991920066502536
255	0xbf73c5eec66ba138	-0.004827435221820324

bf f8 [16, 1]
0	0x0000000000000000	0.0
1	0x0000000000000000	0.0
2	0x0000000000000000	0.0
3	0x0000000000000000	0.0
4	0x0000000000000000	0.0
5	0x0000000000000000	0.0
6	0x0000000000000000	0.0
7	0x0000000000000000	0.0
8	0x0000000000000000	0.0
9	0x0000000000000000	0.0
10	0x0000000000000000	0.0
11	0x0000000000000000	0.0
12	0x0000000000000000	0.0
13	0x0000000000000000	0.0
14	0x0000000000000000	0.0
15	0x0000000000000000	0.0

Wi f8 [16, 21]
0	0x3f8852dc4a86ab96	0.011876793884615638
1	0xbf7307dd8f87454d	-0.004646172972983931
2	0x3f607a9fadd6e9ed	0.002011596558728393
3	0x3f6734fa2df753bc	0.0028328787154614215
4	0xbf6535a17e588904	-0.0025890497370407734
5	0x3f7807ee2e6a9645	0.005866938014752747
6	0xbf7373b9cbd4c4df	-0.0047490365662252445
7	0x3f81d81b6fd052d3	0.008712972974572441
8	0xbf8b90cf589e8595	-0.013459796802467486
9	0x3f54b4be670fd269	0.0012637957954641183
10	0x3f93dac9399bddda	0.01938928999058285
11	0xbf847c9df9f29781	-0.010003313246055747
12	0xbf7bc2abcd59677e	-0.0067774497052485155
13	0x3f750cb6e130daa0	0.00513907849658915
14	0x3f5d6c34b372c41f	0.0017958178193959796
15	0x3f6cb93f02ffd9a0	0.003506300992735592
16	0x3f74097fb418ea99	0.004891871301476635
17	0x3f79ff8977ed3c69	0.006347214685617699
18	0x3f86ba05ea5dc3ba	0.011096998419562232
19	0x3f70c942949b9743	0.004098186569285125
20	0xbf63c38a2badc6f4	-0.0024125765461854246
21	0x3f7b8c7248216629	0.006725737012027313
22	0x3f93746d2f10c113	0.018998819348952155
23	0xbf55bb1001f53472	-0.0013263374638257355
24	0xbf83f557176781a6	-0.009745293046706415
25	0x3f86ac4a857d5d73	0.011070806692869728
26	0xbf53b926e7d49a11	-0.0012038116395359825
27	0xbf963f85d9ce4a18	-0.02172669546014036
28	0x3f815aee1f248199	0.008474216771504216
29	0xbf75ed52a835361a	-0.005353281859539228
30	0xbf4daa7b6ef883b6	-0.0009053328230416078
31	0x3f6b3221d41122f6	0.0033198033056901456
32	0x3f5f3622bc830017	0.001904996797790664
33	0x3f7d0f24386e96ff	0.007094518171390395
34	0xbf71d667d31cb8c3	-0.004354863705698433
35	0x3f75044de39bd278	0.005131057981760827
36	0xbf6543169d715398	-0.002595466775839172
37	0x3f7e42fd48895fc1	0.00738810480887503
38	0x3f79349883046b12	0.006153674840130534
39	0xbf832864929d93e7	-0.009354387020445954
40	0x3f863dac85d74c7e	0.010859821161750324
41	0xbf75f3fbeafa8657	-0.00535963445114048
42	0x3f808c8cd15a03f1	0.00808057798281145
43	0x3f6e1692bfc633c4	0.0036728731340134064
44	0x3f92d2b02f08f89b	0.018381836767951226
45	0xbf624e6bdb89ad1a	-0.0022346598237185213
46	0xbf6c9db444e30365	-0.003493167961181975
47	0xbf297423719b97d5	-0.0001941960588773261
48	0xbf68d62410aa8637	-0.0030317978283427543
49	0x3f8061ffd89a7150	0.0079994190194205
50	0xbf908d0fb022f2fe	-0.01616310608436588
51	0xbf8594549a72c3d1	-0.010536824191463541
52	0xbf85de5cd223f5e8	-0.010678029215791932
53	0x3f837659424b19bf	0.009503075919735758
54	0x3f91844533a7515e	0.017106133725819254
55	0xbf511ceaf1bc33d8	-0.0010444921853747149
56	0xbf5ba8e5732be713	-0.0016882172319001062
57	0x3f46f466bf7811ac	0.0007005216311318139
58	0x3f87cb96a8ee448e	0.011618783026081905
59	0xbf82fe004ea7c3a8	-0.009273531341905741
60	0x3f6386f5bb45c540	0.0023836898273478513
61	0x3f83f8d81a2a07b5	0.009751976297824297
62	0x3f74865a6b898a27	0.005010941699398453
63	0x3f5f0fa11ba83fe1	0.001895816165987434
64	0x3f84805d52596257	0.010010460925671412
65	0xbf9bae5c7bad4a24	-0.027032322929992372
66	0x3f7bc409b4810e84	0.006778753195309076
67	0xbf7aca7b0ae70fb0	-0.006540756831274239
68	0xbf92bee4f0eb5147	-0.01830632896856457
69	0x3f74f05907745352	0.005112025995249807
70	0x3f8c21ed4a300af8	0.013736585451629577
71	0xbf56850230225c0d	-0.0013744851462769187
72	0x3f8383ce9164e9ee	0.00952874547202939
73	0x3f90827d9f9ac20a	0.016122782579886454
74	0x3f8aedf04e03b5fa	0.013149144535840474
75	0x3f90cb1190cf5c97	0.01639964529371393
76	0x3f7e65c550941fc0	0.007421274910718922
77	0x3f48b7d50f7d211c	0.000754336389015928
78	0xbf9067750edb38e8	-0.016019658118971686
79	0xbf64284dec92addf	-0.002460624881299486
80	0xbf81450a6bf29d34	-0.008432465953161918
81	0x3f963afefeecfa9e	0.02170942717497814
82	0xbf5cd12f87d35120	-0.0017588581243233661
83	0x3f542f958a24c28c	0.0012320480678448568
84	0x3f7696be48b0c947	0.005514853760404676
85	0x3f3c9346cfdc23f1	0.00043602446372453726
86	0x3f915b797f5918c7	0.01695051040430753
87	0xbf7980f3a748b18d	-0.00622649361734452
88	0x3f5fe26da3b68eac	0.0019460745523724272
89	0xbf7e695e4d6910d7	-0.007424705856980482
90	0xbf8b08b839410f30	-0.013200225112207059
91	0xbf790edd261a4a4e	-0.006117690909052854
92	0xbf3845be521a6403	-0.00037036797048412023
93	0xbf71958f624de492	-0.0042930222451726
94	0xbf7c5c8f6a2dfa1e	-0.00692420979873856
95	0xbf8ccd2759242176	-0.014063174636718339
96	0xbf4b3b669530f01e	-0.0008310557262869477
97	0xbf8ed1117fafe213	-0.015047203740310022
98	0x3f7f21c3b125f42d	0.007600559636896026
99	0x3f4b038c36b65b95	0.0008243975293450329
100	0xbf8dd9c481cb85d8	-0.014575514994649305
101	0xbf6954959789aacd	-0.0030920907704986345
102	0xbf7eceee7a287cd2	-0.007521564055905832
103	0x3f6a25931ade97a1	0.0031917451041918042
104	0x3f8b73d22234cc3f	0.013404504460231446
105	0xbf9333a6f1426ff8	-0.018751724696457445
106	0x3f52d88b1eccd7e3	0.0011502607914741717
107	0xbf5a3c74ccc8d4b3	-0.001601327955666404
108	0x3f7b7f82cba7e3fa	0.006713400764504657
109	0x3f61770eaeaffe0f	0.0021319662823768913
110	0xbf7eccf84dfc71de	-0.007519693317388191
111	0xbf6a230bc6310170	-0.003190539356666182
112	0xbf804d77d1bd435e	-0.007960258568034891
113	0x3f86096055a4bb35	0.010760071385985984
114	0x3f2bef00ae70032c	0.0002131164867194222
115	0x3f9377db78c031c1	0.019011906857530073
116	0xbf43e0990eb2995f	-0.0006066081381462077
117	0xbf7d042eef621efb	-0.007084067669104628
118	0xbf8f003910f0c66d	-0.015137143926128272
119	0xbf9276d28d95e814	-0.01803139676255945
120	0xbf9038b7a2b47f55	-0.015841359430054897
121	0x3f65e20d499850e8	0.0026712665101148343
122	0x3f74d65e55fd1bc5	0.005087250232299338
123	0xbf9030ff1e28a006	-0.015811907020321335
124	0x3f8254941702898e	0.008950383140761155
125	0xbf73c94323084361	-0.004830610516834395
126	0x3f580cf1f6e2cc84	0.0014679301198554937
127	0x3f908256f2e44964	0.016122206282554244
128	0x3f825e055a83441a	0.00896839315865532
129	0xbf65ff7ef03bbd49	-0.002685306479058323
130	0xbf824069f50236dc	-0.008911922254152875
131	0xbf9608dadf078fe1	-0.02151815401329305
132	0xbf7d74de7de9b830	-0.0071915331924242015
133	0xbf614bb8d6b52cf8	-0.0021113023882769442
134	0xbf8437a9eec06946	-0.00987179527151184
135	0xbf558150f3dc8b67	-0.0013125696709230473
136	0x3f492ecd9ea5f25c	0.0007685188295876821
137	0xbf626b925c3759cb	-0.0022485598180807856
138	0xbf7a9fc5644ff7f1	-0.006500025808234598
139	0x3f5ba1e3c043f1ec	0.0016865467196672769
140	0x3f721a1565de26a8	0.004419406495694091
141	0xbf8654d4de2d2bac	-0.010903990774428461
142	0x3f8ce559623aef58	0.0141093237974627
143	0xbf5027160284a62c	-0.0009858813228426173
144	0x3f28b4e248241ce4	0.00018849622944847662
145	0x3f7d022a9dd4ae6a	0.007082144232565571
146	0x3f631ae59222ede5	0.0023321613126350165
147	0x3f83852e55b3c04c	0.00953136633913245
148	0x3f67856e1fd19001	0.002871241652018242
149	0xbf7915df0f304869	-0.006124373746404379
150	0x3f6d9d4745cec267	0.0036150352520610165
151	0xbf876c6b547b4c04	-0.011437262073206618
152	0x3f51c952f705e803	0.0010855970577652314
153	0xbf35c7113b0b72ff	-0.000332299906444608
154	0xbf610c86dea25a92	-0.002081168572725397
155	0xbf550f410514cbfa	-0.0012853751143893075
156	0xbf9345278441c0ba	-0.01881849045497639
157	0xbf7679cc3551d70a	-0.005487249077409615
158	0x3f4e6c6511ebfdfb	0.0009284490114111471
159	0x3f5a30dcf0704b5f	0.0015985639199740038
160	0xbf850bfa39b1f456	-0.010276751409259582
161	0x3f89ebf44e9fd6e8	0.012657078408647007
162	0xbf81bd4033a7ea9c	-0.008661748482145008
163	0x3f83dabf6db0d348	0.009694572005267368
164	0x3f717f75221fb8f8	0.004271943618716849
165	0xbf7a782f39d98be5	-0.0064622730984380304
166	0x3f922ddef8f5a974	0.01775310892609512
167	0xbf8872183c74a2ea	-0.0119363683175648
168	0x3f82d303d9403e32	0.009191541736100015
169	0x3f847deedaa2d352	0.010005823180429783
170	0xbf7b77f66a903705	-0.006706202090766449
171	0x3f8c848749f7a049	0.013924653000643288
172	0xbf647bdb00dba6b3	-0.0025004651459895277
173	0x3f67a6581ed29401	0.00288693629279857
174	0x3f6553583addc171	0.0026032183877122074
175	0xbf5601512165a660	-0.001343087414705478
176	0x3f809af87152e48d	0.008108082731597821
177	0x3f80402a885c8031	0.00793488720552213
178	0xbf91e7abf1a48a2c	-0.017485319732381807
179	0x3f8ab67fd6e1a7f3	0.013043402428781525
180	0xbf91061f7cbd2fbf	-0.016624919880356744
181	0x3f8525840e572b8a	0.010325462043416573
182	0x3f87132e093159a4	0.011267051368275834
183	0xbf8657ce5b1aca6f	-0.010909664302151982
184	0xbf70d3b3350a0370	-0.004108142879545848
185	0xbf86a513af36eb64	-0.011057046684859358
186	0xbf619b387ed1f0a1	-0.002149210302887353
187	0xbf693bf2788514d6	-0.0030803428418574126
188	0x3f7fef554e17b4d1	0.007796605322693399
189	0x3f8ad5caa0faceda	0.013103087461196084
190	0x3f8c956719d4fb67	0.013956838107899562
191	0xbf7706c24e3de07c	-0.005621680265783021
192	0xbf6123b361b5803f	-0.002092218737445278
193	0xbf913d083f3790d5	-0.016834381922209502
194	0xbf8081147e6f225d	-0.008058700664961888
195	0x3f83c299f0c58b9f	0.009648516330974575
196	0x3f908b2747a50efa	0.016155828235482318
197	0xbf89478b02ed220c	-0.012343488718799221
198	0xbf78447022bcd91e	-0.005924642591528943
199	0xbf314e26a02a698c	-0.00026405756958927033
200	0x3f66f367c4b7795a	0.002801611588196068
201	0xbf8094a7734360d6	-0.00809603519921646
202	0x3f715e9a32cc042e	0.004240610444640898
203	0xbf736890cfe05c92	-0.004738393470709161
204	0xbf22f1609d919814	-0.00014452270878279104
205	0x3f7660349cb82655	0.005462842480036996
206	0x3f10d5e98d5a87e5	6.422269810937816e-05
207	0xbf71dfd6748503f7	-0.004363858905265686
208	0xbf51f55e4ed634ff	-0.0010960980392583084
209	0xbf4cf46c198e0833	-0.0008836295920533532
210	0xbf6e4fb19733727a	-0.003700110298821277
211	0xbf653358c8280a47	-0.002587960626671024
212	0x3f905ec1f49b3eda	0.01598647170504717
213	0x3f76f9aaad892245	0.005609194479412387
214	0xbf6834abe0d0a4d8	-0.0029548031802916035
215	0x3f7c8c18bbde47c0	0.0069695440451073565
216	0xbf6b58b3bd34cb83	-0.0033381948975600997
217	0x3f88068d3c348fbb	0.011731246375866413
218	0x3f6e47f5688c4afb	0.003696421921980939
219	0xbf519493ff8b7c05	-0.0010730214400422888
220	0x3f7256a6f8ace24e	0.004477169258102777
221	0xbf9015f523f7d03b	-0.015708761520684993
222	0xbf871381b25548fb	-0.011267674689098053
223	0xbf88739b04824384	-0.011939250063990554
224	0x3f576b77cb01e89c	0.0014294309476370675
225	0x3f91bdaf22813523	0.01732514999485092
226	0x3f96d9382e37e22e	0.022313001461926323
227	0x3f7a22736237e749	0.006380511014407572
228	0x3f7483bc26716848	0.00500844474944457
229	0xbf92715d62a7df90	-0.01801057734152739
230	0xbf763a58e38f82b7	-0.005426737997340217
231	0xbf802241740fb061	-0.007877837519082389
232	0xbf796e0f14d89ff0	-0.006208475982511161
233	0xbf5b8c76812e7c6e	-0.001681438185847896
234	0xbf73563a7eb6a30d	-0.004720905776971274
235	0xbf94449d9e2e853a	-0.019792998103757876
236	0x3f7ea2684e7576fa	0.0074791025611753385
237	0xbf85f84351015275	-0.010727430257398066
238	0x3f63995ed23fbaa8	0.0023924686411114955
239	0x3f953d15516e59f6	0.020740826697499735
240	0xbf82d4391c43c9f6	-0.009193845915864234
241	0xbf99e8ff36630b77	-0.025302875227463297
242	0xbf676df17970111e	-0.0028600422188011084
243	0x3f868c33021f6f9c	0.01100959634998571
244	0x3f940db0bacda491	0.01958347454220594
245	0xbf892e6187c2373f	-0.012295495944524169
246	0x3f745844d328f024	0.004966992232365217
247	0xbf730f223f18de6f	-0.004653104567800533
248	0xbf515bcbcac0b8e8	-0.0010594835430413566
249	0x3f9b13fcc7cb17ec	0.02644343347017035
250	0xbf8ec7e4a095d29f	-0.015029703283951533
251	0x3f64c94e6f4d3189	0.0025373966149457344
252	0x3f73281e4c5e014e	0.004676931717654332
253	0x3f863ca5bc7c141f	0.010857863249393472
254	0x3f500db6196b246f	0.0009798315347089544
255	0x3f693c49bda8c71c	0.003080505395041023

bi f8 [16, 1]
0	0x0000000000000000	0.0
1	0x0000000000000000	0.0
2	0x0000000000000000	0.0
3	0x0000000000000000	0.0
4	0x0000000000000000	0.0
5	0x0000000000000000	0.0
6	0x0000000000000000	0.0
7	0x0000000000000000	0.0
8	0x0000000000000000	0.0
9	0x0000000000000000	0.0
10	0x0000000000000000	0.0
11	0x0000000000000000	0.0
12	0x0000000000000000	0.0
13	0x0000000000000000	0.0
14	0x0000000000000000	0.0
15	0x0000000000000000	0.0

Wc f8 [16, 21]
0	0x3f66b90418b3d1a0	0.002773769379581917
1	0x3f8bddc50d9ca30e	0.01360658595838651
2	0xbf8acdfd00d826b0	-0.013088203991191122
3	0xbf9eeb784e5d7061	-0.030195121558208252
4	0x3f5e1f35748b8705	0.0018384954475369486
5	0x3f926fee99a079bb	0.018005111815108537
6	0x3f895fa5a563ce6d	0.012389463529394374
7	0x3f612ce06a357e6a	0.0020965941527462577
8	0xbf74232dd6360f68	-0.004916361856320474
9	0x3f8087a59c837a7e	0.008071225966373104
10	0xbf83f02f971c2d0a	-0.009735461997044687
11	0x3f7382f9267e2d19	0.004763577693562193
12	0x3f74b43d206f9943	0.005054701591666269
13	0x3f85b68da65e4451	0.010602099074988798
14	0x3f9c4248809ba8f2	0.027596600389110777
15	0x3f7012c797461548	0.003924159671787671
16	0xbf74d8ded45cde48	-0.005089636257074988
17	0xbf30c2a8584653a9	-0.00025574312191994436
18	0xbf921d86be39c1e4	-0.017690759048891183
19	0xbf7c74985c802cbb	-0.006947131310890582
20	0xbf70c3a32dd7faa2	-0.00409282438113104
21	0xbf75777714b1da4f	-0.005240883979345925
22	0x3f58f639fb5f9e00	0.00152354872033722
23	0xbf80d7d9590d84bc	-0.008224199323822005
24	0x3f86f56de45156f1	0.011210306673244715
25	0x3ec15eaf6d22b6f8	2.0706491819709383e-06
26	0xbf186157015bb97f	-9.300321138614417e-05
27	0xbf6adc735add86a0	-0.0032789471651291785
28	0x3f596d2b47904ad6	0.0015519068385897914
29	0x3f80e5e42504ca03	0.008250982646676347
30	0xbf81c242796d9a8b	-0.008671302157109003
31	0xbf7af4d9ff9b190d	-0.006581164890752567
32	0xbf68e198b35f6a27	-0.003037260287766647
33	0xbf8b903d60138dc8	-0.01345870923473215
34	0xbf80c7454928da70	-0.008192578597214978
35	0xbf738189ac6851c9	-0.00476220873544659
36	0x3f81e8514acf9d2a	0.008743891807127275
37	0x3f65824f66cd6b6e	0.0026256132900192497
38	0x3f5fb7bfd86bfe68	0.0019358991136754437
39	0x3f816d27e9945df8	0.008508979621679721
40	0xbf5681ca58af0da8	-0.0013737178839939666
41	0x3f6ffca4336b147a	0.003904648499288896
42	0xbf50e96f21f8c4c7	-0.0010322175293249623
43	0x3f65bd0d43ec6e85	0.0026536234939962843
44	0xbf77deaadc24f884	-0.005827586576115821
45	0xbf98f9367d6dc83f	-0.024388171582764292
46	0xbf560013867aca78	-0.0013427916218630414
47	0x3f8d234c393314ca	0.0142274813609994
48	0x3f82f80944ef303f	0.009262154022415923
49	0x3f83c57691eab20e	0.009653974845911708
50	0x3f8950e291e62a87	0.01236130721806218
51	0x3f4d0d2344c377a4	0.0008865759096143744
52	0x3f602a02a34b4bb9	0.001973157074055956
53	0xbf794c8cae97ac33	-0.0061765189543435016
54	0xbf69e48739885aff	-0.0031607285602704978
55	0x3f7938d418039427	0.006157711497711416
56	0x3f88a7d256dd411a	0.012038844371688163
57	0xbf56d8ccfbe73e1f	-0.0013944627568099955
58	0xbf7270939b20a626	-0.004501892648514116
59	0x3ed624ea41298a75	5.2795885659729285e-06
60	0x3f78a01c13f731e4	0.006012067489291149
61	0xbf8d91f5213cbc93	-0.014438548161335418
62	0xbf97834cf3fa163e	-0.022961809531372383
63	0xbf768ccc1a35a03a	-0.005505368494915836
64	0xbf89000c7bc50fb2	-0.012207124259141586
65	0xbf74d03c74e893ff	-0.005081401976473109
66	0xbf58365b173d9a51	-0.0014778031881747154
67	0xbf7290a76efeaf22	-0.004532484090230134
68	0x3f8dbf1cecb96af6	0.014524675344707454
69	0x3f6ac45598fe7561	0.0032674476460232004
70	0x3f689d676f4d024d	0.0030047435961082837
71	0x3f797c509599c341	0.006222071440434019
72	0xbf8752c3efb7b543	-0.011388331177807692
73	0x3f8547f03b82370f	0.010391117874202686
74	0xbf48d391aa145717	-0.0007576428653545988
75	0x3f7b767fb3c8d2a7	0.006704806172412126
76	0xbf85f39e6cf37a13	-0.010718572330401554
77	0xbf8fd22bb6df7bf2	-0.015537587660160643
78	0x3f80c018eaa2e682	0.008178896580250287
79	0x3f6ed5e1416ff59e	0.0037640952609751662
80	0xbf8279591a058f4e	-0.009020515543575105
81	0xbf81cf8a0768b8f5	-0.008696630812746945
82	0x3f870c84ff6d68c0	0.011254347844147694
83	0xbf885bf19e81d0ac	-0.01189411892867328
84	0x3f90d22b287d85df	0.016426729532559633
85	0xbf8271d8b01ceb6c	-0.009006207346478688
86	0x3f7a260646cd8e78	0.0063839192560838295
87	0xbf6aeba101fc2bc0	-0.003286184757489846
88	0x3f78b4e0ee608a12	0.006031874310823431
89	0xbf764972e719a578	-0.005441140021141926
90	0xbf5aac0784dd65c7	-0.0016279290607229423
91	0x3f3ad11933774c6d	0.0004091917539572113
92	0xbf8486593bc37021	-0.010021874557814727
93	0x3f7e581b35b4a2b5	0.007408243454201259
94	0xbf75056f2d6add25	-0.005132135664715852
95	0xbf62ba167347fcb1	-0.0022859991534001857
96	0xbf845d4123944ee8	-0.009943493746085122
97	0xbf9a3d0102a37d9a	-0.025623336587953106
98	0xbf5f4c48fb846da1	-0.00191027762600169
99	0x3f98b486cd589a9a	0.02412615421612916
100	0x3f8011960c8bbe2b	0.007846042878980239
101	0xbf293eb605778ade	-0.00019260379734394641
102	0xbf65893864700d80	-0.0026289082920826767
103	0x3f2d724d7f8118d3	0.0002246589281204638
104	0x3f7668f5b1122f83	0.0054711911517521
105	0xbf882edc21f4b81a	-0.01180812815308845
106	0x3f86d24142ddb7f6	0.011143216946688721
107	0x3f7d4d5118a36a05	0.0071538131544124405
108	0x3f7d6ab920b2faa1	0.007181857257079345
109	0x3f71f5c0595308e8	0.004384757388097273
110	0x3f29b64210a72267	0.00019616657693989905
111	0x3f7b8f7620840a37	0.006728612359668199
112	0x3f783d9ef7f4eea1	0.00591814133741378
113	0xbf6d00c597fb6f9b	-0.003540407109410238
114	0xbf777ea688e21764	-0.00573601772896901
115	0x3f50b029a481c0e6	0.0010185629526198669
116	0x3f8fb953a7524393	0.015490201514951873
117	0xbf89607d5d4b4744	-0.012391070756539009
118	0xbf8e0e0f11cbfd63	-0.014675252657524401
119	0x3f5afe920fdab10d	0.0016476084123651675
120	0x3f40acc51381e84f	0.0005088770185601807
121	0x3f5c6679f2e21e15	0.0017334166437040822
122	0x3f63fc11c22abb41	0.0024395319790850027
123	0xbf6248e3fae55f42	-0.002232022546348051
124	0x3f8e832cdb8b4e51	0.014898634386020822
125	0xbf9064ac794382f3	-0.016009039784765155
126	0xbf80f7b5e219e567	-0.00828497024780246
127	0xbf50ead18b848b31	-0.001032547601490474
128	0xbf90d3855833d131	-0.016431888111541674
129	0xbf5ccfde4a2bf573	-0.0017585440443207117
130	0x3f910371c100d5bf	0.01661470165728018
131	0x3f2b6057aee576f5	0.0002088648829596179
132	0x3f62e6260e785dfa	0.0023070090571868348
133	0xbf89cee48451ab4e	-0.012601647651725802
134	0xbf793f048e684973	-0.006163614080394775
135	0xbf6ebc703a9500d5	-0.00375196380323937
136	0xbf6a06f7f0011b23	-0.0031771509675623407
137	0x3f8a3f812ec5e368	0.012816437950037687
138	0x3f76d7d08abbd747	0.005576910607251246
139	0xbf86c33d9e12e9f3	-0.01111457956937032
140	0x3f64319473bc447a	0.0024650477843200487
141	0x3f74683bd28d4bfc	0.004982217484967851
142	0x3f8759aa22a42407	0.011401490385212666
143	0x3f902f4ae65a3316	0.015805406865683734
144	0xbf84ca045c8035b8	-0.010150941918278686
145	0xbf809b3a87639f3c	-0.008108575112103382
146	0xbf89c1546e18d243	-0.012575778589146163
147	0xbf632bc08d45f5f2	-0.0023401985910698137
148	0x3f731a1f3aa25039	0.004663583744463345
149	0x3f843879f4b78b8a	0.009873345165891018
150	0xbf48e33bd02ea5dc	-0.0007595102364252276
151	0xbf6a33b050aae5d3	-0.0031984752325484394
152	0x3f58dd3108b6acdf	0.0015175799224874038
153	0xbf811a8dd3ffbe6f	-0.00835142901630023
154	0x3f956599b2efaa03	0.020895387216947735
155	0xbf9076630d618b65	-0.016076610271180587
156	0x3f5e4494dc8b77c7	0.0018474057889572447
157	0x3f94b8c32543500e	0.020236062192296393
158	0x3f11d34c666e7547	6.799844559997769e-05
159	0xbf5f22d099c9e72a	-0.0019003903500149446
160	0xbf6d482c80581e96	-0.003574454228104272
161	0xbf5d8e2cef212cae	-0.0018039168176240783
162	0x3f8c1dae081682e0	0.013728484746765302
163	0xbf96a64366e5aa67	-0.02211861911329507
164	0x3f8f679bdfcfe976	0.015334337012963255
165	0xbf8d29a2f00de621	-0.01423957152450145
166	0xbf65d81acab55fb5	-0.002666523292344148
167	0xbf7194f4378c372e	-0.004292444202986618
168	0x3f781b6da74c8f01	0.005885532697707197
169	0xbf905d63190d2067	-0.015981243518837476
170	0x3f72ee3b4dbf92aa	0.004621726660819428
171	0x3f94ba9b3128e8f2	0.020243096232868525
172	0xbf8beaf52d7a8aa4	-0.013631740045928105
173	0x3f5f14da76df0283	0.0018970616761039567
174	0xbf7b1d62e0aadb2e	-0.0066198217779660905
175	0x3f7171c04394d82d	0.004258872061930358
176	0x3f2918ed8e4b3156	0.0001914777741575206
177	0xbf7a467a4f39a60a	-0.006414869090443096
178	0x3f73fbb6314da99d	0.00487872284871074
179	0x3f9279fd84e2a597	0.018043481097867433
180	0xbf5f4715dafa0b16	-0.0019090379172729869
181	0x3f7d7b35839c2b12	0.007197579421481819
182	0xbf8a7c7994b56890	-0.012932729578711638
183	0xbf83967b2cbb25dc	-0.009564363768180088
184	0x3f735989f23a3781	0.0047240627788037734
185	0x3f8e650ad07b85c3	0.01484116028535965
186	0x3f6d21c0a0fa4d73	0.0035561334878565997
187	0xbf69a54d80e93c63	-0.0031305803052315436
188	0xbeddb879f0e59281	-7.085945766459172e-06
189	0xbf899bbcd9ecdc08	-0.012504077339697175
190	0x3f78c2cd790f71d6	0.006045153263553668
191	0x3f8211f763bfa9df	0.008823330623234092
192	0xbf728482bf18d0a5	-0.004520903328330804
193	0xbf7340bfc861052f	-0.0047004214775950145
194	0x3f65c7dee057f9db	0.002658782296520485
195	0xbf71e3569d68f1ac	-0.004367197360405955
196	0xbf45ab9b15c81740	-0.0006613261462582246
197	0x3f95804b709b5413	0.020997217891665153
198	0xbf643c8121e98420	-0.0024702570074599667
199	0xbf6d5af00aced544	-0.003583401520212222
200	0xbf7a85f7cc7ab536	-0.006475418056351592
201	0x3f7e7b6b1cb9e04d	0.007441919714999368
202	0xbf5db117be37eeff	-0.00181224173218103
203	0xbf7a992b79ffc836	-0.00649373038321426
204	0x3f8b0f704088eb5b	0.013213040322730121
205	0x3f8d12cee6371444	0.014196030045136372
206	0xbf7897e5bc9344f8	-0.006004235657387051
207	0xbf931d05c1e92d8a	-0.018665399513606164
208	0x3f84a245fbd9892e	0.010075136898369221
209	0xbf7c0add31d742d1	-0.00684629825760004
210	0x3f803127b757bf1a	0.007906255991627687
211	0xbf942c824aac0089	-0.019701038177118355
212	0x3f8247c7de1e8f54	0.008925973382993092
213	0xbf88ce07721668a8	-0.012111719292807813
214	0x3f7dee9dfecc0549	0.007307641190665245
215	0x3f22b53f3100ff81	0.00014273067836434106
216	0xbf838963d0b1a3c9	-0.009539394193966448
217	0xbf70ac15c85e6918	-0.004070363129267805
218	0x3f7c1c92145cfcea	0.006863184569567008
219	0x3f515989084afedb	0.0010589445311523424
220	0x3f77f003a6286f9c	0.005844129804724842
221	0x3f943d1ed2eb53aa	0.019764405845154855
222	0xbf900490c69d184a	-0.015642416117110515
223	0x3f908f6cfcce8af0	0.01617212574968624
224	0x3f51190158d5e99f	0.0010435593752321293
225	0xbf826837877f44ee	-0.008987840483231282
226	0xbf8b3eacb9471c0a	-0.013303136257389898
227	0xbf5efc48bbc5b06d	-0.001891203907770335
228	0x3f82e019d72028db	0.009216501119244594
229	0xbf54e5cc406b53e8	-0.0012754912037753422
230	0x3f8ef2cdd05e3d36	0.015111549302473475
231	0xbf8db8570a5c9a9e	-0.01451175690051559
232	0xbf1fb0c16cf8fb51	-0.00012088947846054561
233	0xbf89a62606d69ce0	-0.01252393444413119
234	0x3f6dc9e9cdf864bf	0.003636318826249679
235	0x3f8229d81adb30f8	0.008868873900973004
236	0xbf713c01d6ec3155	-0.004207617936810533
237	0xbf9aaaca55d7139c	-0.02604213856627134
238	0x3f604c3ebae8b6df	0.0019894814679649454
239	0x3f71e3891f74a5a3	0.0043673855173350954
240	0x3f708f567814ad7a	0.004042947549616977
241	0x3f894f0ec7e88ebe	0.012357821918221542
242	0xbf85ef67ea1bb647	-0.01071053679649049
243	0x3f7bdc953456ec8a	0.006802161054504494
244	0x3f886c2c7d4e61a0	0.01192507512477975
245	0xbf923675ec4153da	-0.01778587584006517
246	0x3f6a2f95ac4c1417	0.0031965182591897723
247	0xbf74a6b56dad4ab1	-0.005041798310076715
248	0xbf4ab69e13036189	-0.0008152267310164589
249	0x3f6c7b4de8717eb8	0.0034767648353833634
250	0xbf73f4f637c4648f	-0.004872285641135523
251	0xbf7bad50104342b0	-0.0067570807916161185
252	0x3f3661d329728b12	0.000341524174880246
253	0xbf86444ccc028d04	-0.010872459388628027
254	0xbf863cd9d16b4036	-0.010858251288851855
255	0x3f7bd3bec521c3ca	0.006793732829565033

bc f8 [16, 1]
0	0x0000000000000000	0.0
1	0x0000000000000000	0.0
2	0x0000000000000000	0.0
3	0x0000000000000000	0.0
4	0x0000000000000000	0.0
5	0x0000000000000000	0.0
6	0x0000000000000000	0.0
7	0x0000000000000000	0.0
8	0x0000000000000000	0.0
9	0x0000000000000000	0.0
10	0x0000000000000000	0.0
11	0x0000000000000000	0.0
12	0x0000000000000000	0.0
13	0x0000000000000000	0.0
14	0x0000000000000000	0.0
15	0x0000000000000000	0.0

Wo f8 [16, 21]
0	0x3f577e25f1d4578a	0.0014338846734225108
1	0xbf92304b49697c0d	-0.0177623523289832
2	0x3f70bd0909b76a8c	0.004086528114806708
3	0xbf8514df0d0bccea	-0.010293715081820715
4	0xbf8bb3e35332906c	-0.013526702858435345
5	0xbf8f2d8be967dabb	-0.015223591862178911
6	0x3f86c9b10e7f688d	0.011126883749899253
7	0xbf79c64e0f6fd75f	-0.0062926339369278874
8	0x3f8f69267c67a2c0	0.015337277099164992
9	0xbf75f24919c0dcf3	-0.005358014630522978
10	0xbf917bbc879df91e	-0.01707357957592947
11	0xbf86ddcdbc61922a	-0.011165244399486591
12	0x3f894f36475b10e4	0.012358116200069387
13	0xbf598ad7f079e49b	-0.0015589817793666752
14	0xbf76753581288678	-0.005482872964906009
15	0x3f5a37a69df3fc1a	0.001600182258527877
16	0x3f748d92c6a55b09	0.00501782736167545
17	0x3f86e2634dabd4c8	0.011173988159024609
18	0x3f8daa4ec1a7592a	0.014484992298929262
19	0xbf6d78e535b1624a	-0.0035976864578908573
20	0xbf8b284f13929ce1	-0.013260476860820382
21	0xbf70ef7f1735a6ae	-0.00413465161123276
22	0x3f65527a5456d1cd	0.0026028050658288616
23	0xbf83bcdf558b517c	-0.00963758926210611
24	0xbf839a3a36251539	-0.009571509148950429
25	0x3f6c29c12290d320	0.0034378788154988543
26	0xbf3fe28296b41d25	-0.0004865235157045115
27	0x3f357e6c3a1c8edc	0.0003279699541158651
28	0xbf7f11666912a6ed	-0.007584953347000695
29	0xbf62dfda6a657bcc	-0.002304007142057673
30	0xbf82eda4ba47eafd	-0.009242331442683044
31	0x3f823b341504c0fd	0.008901984111247868
32	0x3f8533b022de173b	0.010352493347237526
33	0xbf92e7abb39f9688	-0.01846187862238094
34	0xbf8309505baa0cd6	-0.0092951086019241
35	0xbf8ea61f90a647a1	-0.01496529255090079
36	0xbf7a9ffeb662181b	-0.006500239344068982
37	0xbf4b5748c1e9a197	-0.0008343796979036086
38	0xbf8db050e0c0ac9b	-0.014496452196985301
39	0xbf82e1334be8dafa	-0.009218598131253131
40	0xbf848fa0c65f9a7f	-0.010039573720814985
41	0x3f60fab6006a4f3d	0.0020726732939894397
42	0x3f46b9064c7578ec	0.0006934433703625043
43	0xbf7d8ff77e0f817a	-0.0072173755333725335
44	0x3f5cf867a8607cc1	0.0017682087213939798
45	0xbf76645b2d8c5ccc	-0.005466800845872654
46	0xbf66410544af7217	-0.0027165511032605327
47	0x3f9122daaff85f2c	0.01673452090298537
48	0x3f8b73e05e51f25f	0.01340461051790348
49	0xbf8a9d8c68e35016	-0.012995812369275977
50	0x3f80fe2ffff0115b	0.008297324178791745
51	0x3f809e0e05401231	0.00811396554491592
52	0xbf878434e5ca8b8f	-0.011482632887526182
53	0x3f80c4c0c035b86a	0.008187776437548606
54	0x3f8f7f314771cbd3	0.015379319184125528
55	0xbf86fd5e227d3924	-0.011225448062444139
56	0xbf82ca5b70d1cc15	-0.009175028210142636
57	0x3f84d77a197ab88d	0.010176614668435025
58	0x3f663dab59eca081	0.0027149531082564797
59	0x3f7696a5daaaf3dc	0.005514762752395232
60	0x3f6be6ac6ea8c9bb	0.003405892164004968
61	0x3f7000be607d9fa1	0.003906959209281442
62	0xbf8b2a88c0cfe7b6	-0.01326472128311083
63	0x3f8572f607e07a63	0.010473177066214484
64	0x3f87f4051d6061e9	0.011695899924277735
65	0xbf62caac2e023c37	-0.002293907440680278
66	0xbf3c7e38c69b12a8	-0.0004347694981386243
67	0xbf8f5b69b402ce9b	-0.015311075025557222
68	0x3f75105a196cea44	0.005142547560178349
69	0x3f776e7500934763	0.005720574417141441
70	0xbf4460f5ebab7723	-0.00062191016999311
71	0x3f8706d988c887ce	0.011243533598705027
72	0xbf6b5e1b7a0c0c8c	-0.0033407723097994054
73	0x3f7720527de4ffec	0.005646059258936003
74	0xbf84e1fa4f01a3fa	-0.010196643386921157
75	0xbf2edeca5ae83d9a	-0.0002355215087423812
76	0xbf5c90f296ca82d6	-0.0017435425790283585
77	0x3f62750cb224801b	0.002253079220409416
78	0xbf6e458a97c9298d	-0.003695269288333586
79	0xbf558a5c3f2fee33	-0.001314725956716678
80	0x3f80eaddbee7501a	0.008260471714415064
81	0xbf71e3ce12666bf3	-0.004367642372382174
82	0xbf90738ba43f3bb8	-0.016065771007386792
83	0x3f91ea6de201be60	0.017495839042054206
84	0x3f8c4acc471cb3a3	0.013814540786904866
85	0xbf8a772da110c849	-0.012922626951056186
86	0x3f7c401c4ac597cd	0.006897078052451944
87	0xbf749a129e6fdde5	-0.005029747705513431
88	0x3f6595ba374894fe	0.002634872153310596
89	0x3f681a53c3c73b95	0.0029422412901349373
90	0xbf6333e34b9c8a82	-0.00234407800316322
91	0xbf800d30781d1b6c	-0.007837656655863966
92	0xbf7c48d905cc8b5c	-0.006905410523162594
93	0xbf82c37bf91badec	-0.009161919154812424
94	0xbf810924de6f55ac	-0.008318222082304448
95	0xbf460352cb378513	-0.0006717829004935526
96	0xbf7d51499733daec	-0.007157599891107518
97	0x3f7befd5929ff252	0.006820520657126199
98	0x3f8e7573ffdc8f6d	0.014872461553359273
99	0xbf77c24c90427bbe	-0.00580053241370043
100	0x3f639cad2019c6e1	0.002394045005353771
101	0x3f7477940120bcc8	0.004996851103029339
102	0x3f73554d72c1fcb8	0.0047200227091927435
103	0x3f48e396f552a965	0.0007595526791608741
104	0x3f7e6b96efb502a5	0.007426824183597224
105	0x3f73c0bf2cd8d433	0.0048224895268065724
106	0xbf8958ea6230d26c	-0.01237662422327298
107	0x3f81cce185bbd7b0	0.008691560643892732
108	0x3f822bf59a3f82c7	0.008872908372667422
109	0xbf7f43a288ca4560	-0.007632861041785816
110	0x3f38dce9a012aa31	0.0003793783544760203
111	0x3f7bfd394c3ec1e3	0.006833289928110694
112	0xbf6125a1031a2629	-0.0020931381957936157
113	0x3f85f97ec1f55eaa	0.010729780477660118
114	0x3f9834bffa408dcc	0.02363872494619361
115	0xbf8018d4986c229b	-0.007859860326349824
116	0xbf8c48a6b06396e0	-0.013810446031537749
117	0x3f68e389aa40aeea	0.003038185956048757
118	0x3f7d8e2199d88a37	0.007215625051261435
119	0xbf62e99e68218995	-0.0023086637384476896
120	0x3f8dc34571b8e00d	0.014532606633210344
121	0xbf8b6a264a90540a	-0.013386057997232487
122	0x3f7c61c743f42069	0.006929186230316111
123	0xbf78d0e941c6215a	-0.006058608207588934
124	0x3f919b3efb10a49d	0.017193779062072968
125	0x3f9467426b2538d3	0.019925153531681183
126	0xbf7f66fa1b7c9e37	-0.007666565877833479
127	0xbf768286342966c9	-0.005495571359085801
128	0x3f819ab755026024	0.00859587886979802
129	0xbf6fb6b7d9a3db1f	-0.0038713064978951463
130	0xbf3dc2bcf57acaf3	-0.0004541121793223822
131	0x3f30a3785bf8f3d5	0.00025388420542410184
132	0xbf93a84ed8fec046	-0.019196731561976564
133	0xbf22232d56a8116a	-0.0001383774609423725
134	0xbf7c4051e53d60f3	-0.006897277740641738
135	0xbf7432c47f380b01	-0.00493122822399772
136	0x3f8d90ca13637b5f	0.014436320034688142
137	0xbf89bbb701734297	-0.012565068942792563
138	0x3f80a789868fc5ba	0.008132051867479773
139	0xbf66da46d405da4a	-0.002789629303318085
140	0xbf66eafef7cfeaf1	-0.002797601684958344
141	0x3f802fd3339e18ff	0.007903718960517113
142	0x3f6bdb647c860232	0.0034005129456889044
143	0x3f775f4f99e07a6a	0.005706129972195309
144	0x3f83d4137447381e	0.009681846605328611
145	0xbf6b240a569cb6ad	-0.0033130838318332274
146	0xbf7913c47856dc56	-0.006122367345077503
147	0xbf86395061d300fc	-0.01085150526557798
148	0xbf80e78742900c88	-0.008254105299789552
149	0x3f9e32dfc46173f5	0.029490944253087254
150	0x3f897db4a776094a	0.012446795807367867
151	0xbf8bab855162dd5f	-0.013510743662080214
152	0xbf8b157d05f6c173	-0.013224579567435701
153	0x3f73bcbb5c2e6ade	0.004818660617184915
154	0x3f766a7cc11e5405	0.0054726479737796695
155	0x3f767b76d384c1b6	0.005488838353173644
156	0xbf64e2cf7e79f7a8	-0.0025495579355369787
157	0xbf548deedc116c1c	-0.0012545426000290022
158	0x3f6adc21caa751f3	0.003278795241593574
159	0x3f4c253a43d21df6	0.0008589300629333041
160	0xbf96b9c344d68a81	-0.02219300372747535
161	0xbf62d33f5f585669	-0.002297996305751938
162	0xbf816fd25f4299f5	-0.008514064342603137
163	0x3f5cb4e64905c93b	0.0017521141890851205
164	0x3f9e91ad67736ad7	0.0298525900260341
165	0x3f6e1aa62b3ab755	0.003674816654743044
166	0xbf69af31af7fd7ff	-0.003135296861723979
167	0x3f82e0e5085a0795	0.009218015019772522
168	0x3f73c5596e5bb49f	0.0048268788720921265
169	0x3f7135028fa2a11c	0.004200944904518413
170	0x3f78db4a283a249b	0.00606850593215671
171	0x3f950f1b062651c9	0.020565435648295414
172	0xbf87291cc39ca8fc	-0.011308884353259156
173	0x3f7366646cd6b3ce	0.004736320768114545
174	0xbf82f8e7b48d5b94	-0.009263811299815385
175	0x3f76c0f8e7c4c97a	0.005555126463422483
176	0xbf82d09029c4cb61	-0.009186865114860944
177	0xbf71186882610eb1	-0.0041736681360508435
178	0xbf682c7be9ee1488	-0.0029508991423790633
179	0x3f83fc1707b7d1a8	0.00975816719344709
180	0x3f82cf58aff7c728	0.009184544439424139
181	0xbf8983258f5a0872	-0.012457173764463845
182	0x3f4200350d0783db	0.0005493411099984873
183	0xbf7d107beb352bd8	-0.007095798547491726
184	0xbf89c630b2a80ee1	-0.012585049106753345
185	0xbf61c72d6af584c7	-0.0021701705042437044
186	0xbf69455a5c184cd3	-0.003084827884558197
187	0x3f98d97dddd21ad6	0.024267164863455225
188	0x3f71bbe9ae770843	0.004329598253606961
189	0xbf8c36aee8f88f49	-0.013776175007542373
190	0xbf772215ac683ffc	-0.005647740041709422
191	0x3f84eafd740b4371	0.010213832954293985
192	0x3f9562ba385c9c00	0.02088442772869925
193	0xbf903d8f625292bc	-0.015859833122379582
194	0xbf93401be6200048	-0.01879924385139045
195	0x3f93289f799b68d5	0.01870965175371782
196	0x3f6feacd2ff5054d	0.0038961417737090388
197	0xbf81c85ac6f0ea92	-0.008682927318763665
198	0x3f75e5fe06763849	0.005346290861224353
199	0xbf9afd745d955598	-0.026357477390168776
200	0x3f01b2873c41cdfc	3.375506597160999e-05
201	0x3f6adae88537158e	0.0032782117284308526
202	0x3f82edd661c23d3c	0.009242701395378299
203	0xbf84c3bc1c880da3	-0.010138959522925378
204	0x3f4c13f5c7921044	0.0008568716140335904
205	0xbf82f3e3e84e9f31	-0.009254246260595874
206	0x3f64ebc91922e2a5	0.002553837556743171
207	0xbf8256317dd9f84c	-0.008953463223630241
208	0xbf70b73f5939e390	-0.004081008391602206
209	0xbf8464f0cc473765	-0.00995815394790229
210	0x3f7aaba88a383c78	0.00651136241823657
211	0x3f8194c195b34db8	0.008584511166566652
212	0xbf63385997fac13e	-0.002346205699574138
213	0x3f390f4560d05c91	0.0003823799496002834
214	0xbf8daaca7c16e2a5	-0.014485914146335441
215	0xbf688cacc0d20c1c	-0.0029967664800678705
216	0xbf407377f106f66c	-0.0005020461704174479
217	0x3f9ad640789f4c6a	0.02620793091029975
218	0xbf86c5e8e0cb6003	-0.011119670257741637
219	0x3f8dfc816c7aa932	0.014641772387524375
220	0x3f846a693276181d	0.00996858773465808
221	0x3f66fd5f3964877b	0.002806364044901364
222	0x3f92021e3aa0b44f	0.017586204841951333
223	0x3f6e7b9e0b5ce7cd	0.003721054726068629
224	0x3f6fe14285ddb5b7	0.0038915919566792872
225	0xbf4168155656d792	-0.0005312065301754534
226	0x3f890f065ac05553	0.012235688824186275
227	0x3f8674a81805e58c	0.010964692338108838
228	0xbf79a0b3ae05fd40	-0.006256772874962124
229	0xbf8b04a79c7dc6e8	-0.013192471945987674
230	0xbf60a0cfffc99224	-0.002029806373956571
231	0xbf8062819591f456	-0.008000385643976465
232	0xbf44d0d3da320e9a	-0.000635245746153551
233	0x3f8957bd598b17a8	0.012374381346841393
234	0xbf72bb27c87b0fc9	-0.0045730165508679
235	0xbf3c109238ed7887	-0.0004282338131157488
236	0x3f43034cbdfc6878	0.0005802273480839523
237	0x3f816038a75beab5	0.008484308822052847
238	0xbf970215e849ad87	-0.022468893339846054
239	0xbf78d9b6b3eb219b	-0.0060670029476529675
240	0x3f614ef0af86a1eb	0.0021128369227947272
241	0x3f8893deb5a33fee	0.012000789564268612
242	0xbf7425f893fa53ce	-0.0049190244750620515
243	0xbf93374534111a33	-0.01876552706041874
244	0x3f7962253ef0e73a	0.006197114459661363
245	0xbf7a0641ecfa7353	-0.006353623888256293
246	0xbf885d478f83c845	-0.011896666590903613
247	0xbf7992bc64d615a1	-0.00624345389713224
248	0xbf5e3b8df0e7c3a9	-0.0018452535765584954
249	0xbf78c535190f3de8	-0.006047446645382128
250	0xbf9695c2536056f5	-0.022055660570990693
251	0x3f825f35de3cf9c8	0.008970661968871321
252	0x3f8a1c0450b3c9ff	0.012748750412787222
253	0x3f7aafb40744bad1	0.0065152199133950576
254	0xbf874cbfdbcee5c9	-0.011376856704248166
255	0xbf6081956f979708	-0.0020149153394751797

bo f8 [16, 1]
0	0x0000000000000000	0.0
1	0x0000000000000000	0.0
2	0x0000000000000000	0.0
3	0x0000000000000000	0.0
4	0x0000000000000000	0.0
5	0x0000000000000000	0.0
6	0x0000000000000000	0.0
7	0x0000000000000000	0.0
8	0x0000000000000000	0.0
9	0x0000000000000000	0.0
10	0x0000000000000000	0.0
11	0x0000000000000000	0.0
12	0x0000000000000000	0.0
13	0x0000000000000000	0.0
14	0x0000000000000000	0.0
15	0x0000000000000000	0.0
