sutskever-implementations/03_lstm_understanding/checkpoints/models/vanilla_rnn_init_weights.npz (npz, 3310 bytes, 2 tensors)

Wh f8 [16, 21]
00000000: 5169 fa4c 3abb 84bf a505 28a0 732a 80bf
00000010: abaf 4b11 55b9 503f f18a f036 0cce 86bf
00000020: f1aa b460 6320 923f ce33 986e f40a 9bbf
00000030: b813 49d4 fb7e 6abf 8557 76b9 1316 523f
00000040: e8bb 74ae b1c8 743f 7368 ef5b 15c2 82bf
00000050: 3c78 80b3 f83a 873f 8c32 f25b b08b 8cbf
00000060: 4878 bedb 4930 77bf 9aeb d687 026d 793f
00000070: 738a 6575 954d 853f 07b0 1ea4 02c1 8cbf
00000080: 6745 7624 ce15 9b3f 0ca8 fac8 7061 82bf
00000090: 1575 3082 9ddf 8abf 65bc 1903 5997 743f
000000a0: ac24 9d3d 3e88 6cbf a89e 8349 7c51 74bf
000000b0: 642c 92d7 c765 783f 3b34 5693 6d47 8fbf
000000c0: 6e63 400f 0b6e 91bf b3ce 6c22 7078 78bf
000000d0: 0750 8a39 4f13 863f a31c 76da b0b1 76bf
000000e0: 43ff 72e2 1760 903f f520 b3b9 c698 883f
000000f0: 4044 e0c2 cf2d 673f 72f4 0495 86d4 6b3f
00000100: 4334 9610 061a 673f b7ae 9e0d 0c2b 5a3f
00000110: 582d 3124 a500 6ebf 3698 acb3 d17e 64bf
00000120: 2772 7236 ace9 85bf 4448 1c9c 7ea1 96bf
00000130: c84e bf7c 829c 863f 733d 879b e5c3 593f
00000140: a65a 37c5 5e48 103f 7880 49b8 0a52 703f
00000150: ba40 1d3e 30f7 80bf 1578 6bf5 7280 84bf
00000160: d5c8 269a 4c3d 67bf 3e5c f3b2 c604 8c3f
00000170: 45f7 96a7 91ef 87bf fe85 adb7 b1e6 9abf
00000180: 0a5f fe65 495b 75bf 56bd 8cdd 0967 873f
00000190: 1e75 f09c c2bd 91bf f520 46d6 152c 88bf
000001a0: fc02 29ca f996 653f d656 d86a db50 9a3f
000001b0: 2c0c cad7 f0d0 8bbf 3775 0033 f59b 8cbf
000001c0: fe2e 8f05 05bf 6b3f 0a9c c4a9 f6ab 883f
000001d0: c024 6d39 2690 79bf 4093 fa32 639a 90bf
000001e0: e887 f0b2 30c4 713f 40a0 fb4e 142f 793f
000001f0: b249 f93f a336 923f 7581 05fa 96e8 7a3f
00000200: fc0f 5b79 73f5 803f b549 4f06 9579 65bf
00000210: a93c 1bd4 4100 993f bdb3 5752 d24e 70bf
00000220: 1eb2 ddef 7710 79bf 60d0 dde7 8887 923f
00000230: 50b5 f3c7 3f31 8ebf 9f92 c1c7 deea 92bf
00000240: ef63 f1b3 9496 533f 9e6b 5db5 7135 f2be
00000250: 8983 ee48 28ab 62bf 98d3 1bf0 0d5b 843f
00000260: ef8b 13b4 9d99 82bf 77f9 b987 ba06 453f
00000270: ba40 b21c f87f 6dbf 4784 ec38 8d40 82bf
00000280: 8317 e3b0 8543 44bf 5e47 59b7 0e76 813f
00000290: 672d 0c2d f1b6 953f e53f 28fd a5bb 773f
000002a0: f1b6 aad8 00b6 99bf 3b4e 4632 d8fe 38bf
000002b0: 9380 77ca c251 403f d1f1 4476 6e2c 833f
000002c0: b1f8 4c83 8147 5e3f a7de 8079 cba9 893f
000002d0: 1a59 94cd f60a 703f b36a 5d5a 97ec 8f3f
000002e0: 332e 759c 95f8 71bf 3e2e b72d 34a6 573f
000002f0: 901a cd7c fbed 803f 9823 05c3 e36f 77bf
00000300: 4767 de3b f12d 80bf f151 bb2d 3cc7 79bf
00000310: 451a b05b 18b0 7ebf 58a9 a579 7567 753f
00000320: 73cc 44d3 d6c9 92bf f098 209e c3dd 8fbf
00000330: aad4 9d02 1413 933f bfbc 7bb0 30b3 7dbf
00000340: 0131 3d8e 9d62 603f 1e49 1b7d 6a7f 8ebf
00000350: 6378 7342 b7d7 4e3f bb44 bad3 5473 7dbf
00000360: f146 039b 8b01 90bf 371a 893c 5061 8b3f
00000370: 4d06 d9d9 0c38 883f 4803 b849 c996 51bf
00000380: 1d00 d484 d577 843f 92ae f019 5e7d 933f
00000390: 4e56 752b 0fe3 7e3f 78f6 ff7e cea5 733f
000003a0: 1f4a c80c 474c 603f e89d 8b36 799a 7a3f
000003b0: 7bd0 e45d f1cf 6dbf 16f0 8083 79a9 66bf
000003c0: 879c b151 f077 723f 3b98 3553 d568 73bf
000003d0: 5665 170a 60f7 6dbf f97e d15d 2f51 bf3e
000003e0: 20b7 0650 7f90 873f 7bf0 4f8e 6b32 87bf
000003f0: 0a1f 8d46 9018 7f3f 06b3 d827 4b37 803f
00000400: da6d 7506 eb17 803f c185 88a9 ac85 80bf
00000410: dd13 3f67 4355 91bf b717 ee83 e2ec 763f
00000420: 6729 4e5d f2b9 5e3f 6016 ef7f d391 843f
00000430: aa16 8d3a a9b1 7cbf 25d0 bc3a 6b22 7f3f
00000440: 653f 14fb 2798 853f 4e53 abac 283b 4fbf
00000450: f067 009d d213 713f dace d5cd 6a4a 6f3f
00000460: bf8a f2bc ddd2 80bf f37a 0d96 f3c0 753f
00000470: a2b7 7a34 489d 903f a578 3d74 671a 2d3f
00000480: 586f ac42 74eb 8dbf 89fa 08ac 1726 7cbf
00000490: b1c6 88e3 aa38 92bf 7648 342c af6c 8a3f
000004a0: 4d46 5989 394c 7f3f 0a56 01e4 3c89 74bf
000004b0: b009 17cf b70a 8dbf f660 7c8f dd10 81bf
000004c0: 7118 f4ae d124 7abf 6e59 3926 e3ec 513f
000004d0: 8ae4 cb81 27d3 483f 6083 1f85 f778 8b3f
000004e0: 0ef8 45a9 0f60 7cbf 4e9d da78 3fe3 8ebf
000004f0: 8e70 0839 e6b1 87bf ece6 d5ef db2d 2ebf
00000500: 2af5 b14a bed8 7dbf 457d 00f1 dceb 67bf
00000510: 65eb 991c e398 72bf fc94 e98d b347 843f
00000520: 7e2a ca04 c80a 78bf 550b 91d9 6fe9 6ebf
00000530: 5f80 af73 4361 7d3f 480f eac4 4324 77bf
00000540: 1578 3511 b455 713f 1660 09f3 bf27 6b3f
00000550: 0997 df51 173a 573f ee6c 270d 813b 87bf
00000560: 2e16 1006 8f2f 893f 8746 3eab 63bd 963f
00000570: fa88 109b 7624 173f 9f10 e4bc e96d 85bf
00000580: 0c07 08ce 9f12 333f 10b4 83ca b745 843f
00000590: 4d35 b2d7 b532 79bf 9839 5f73 6c1e 55bf
000005a0: c13e 0bf8 08e8 6b3f 64b5 757e 6fa3 883f
000005b0: 75a3 dd3b e8c2 7f3f f3ad 24a1 bdba 803f
000005c0: 145d a3f1 bf75 71bf 2ff8 e5fa 6c76 703f
000005d0: f54e a08c 5592 7dbf 56f3 c0eb fd50 813f
000005e0: 6e6e 9dd8 b493 873f ea7f e804 70aa 763f
000005f0: 20a6 6f91 2819 6ebf 100c b8b0 77b0 60bf
00000600: 788c c781 ac7f 923f 5eba ce5c eeba 6cbf
00000610: deb5 d050 fe80 853f 87fe fe69 12c3 6b3f
00000620: f884 ee65 595f 6bbf 046d ce5f d589 8bbf
00000630: 17a5 9fe4 9455 613f f264 ab36 18da 4d3f
00000640: 5700 52e5 b87f 923f ee99 9b17 e39d 81bf
00000650: 4d7a 1a22 997f 973f 8ec1 618b 3b08 6f3f
00000660: e423 8f2f a7f3 6e3f 29e8 72e3 cf4a 78bf
00000670: fffc 9c9f dec7 693f a59f 936a 4c60 733f
00000680: 7d1b 1f65 4b32 833f c7b4 ecd6 3909 84bf
00000690: caba 754d 95cf 8c3f ffbb 8ed1 6e9b 6d3f
000006a0: ca5b 3602 bee9 783f af50 fdbb 7e19 62bf
000006b0: 01cd 31f6 2302 83bf 4328 477b 95d4 473f
000006c0: ee3f 27a7 beaf 5e3f dc50 3358 a25f 8cbf
000006d0: 8eec b9a5 193f 803f cec2 fab8 a868 843f
000006e0: 98e6 6a8f 16e3 7dbf 9867 f1d2 4af1 84bf
000006f0: 17e7 cc81 8fd1 68bf ca59 aa33 dd51 2f3f
00000700: bc6f 674f 11a4 65bf 6819 5a7f 28f6 43bf
00000710: a212 dc55 b924 623f d648 847b ab05 8cbf
00000720: 48dc 84ea e0aa 89bf 2d3b b7aa 49e0 9bbf
00000730: 7926 7fca a64d 833f 4d62 811c 57f5 233f
00000740: 29ef 41fb c175 853f 3593 ac16 064d 87bf
00000750: 5251 6580 befd 2f3f 9f80 c905 3d99 613f
00000760: 3b75 d766 b702 77bf 17fa 497f 6fd0 8fbf
00000770: cf41 ab6b b2e0 913f b85f 164f 46a8 8c3f
00000780: 652e 3b45 b349 6fbf b347 ece7 1fe6 743f
00000790: f2af 0e10 66db 73bf 8377 b419 c862 84bf
000007a0: 2682 3370 0eb6 923f b591 5640 73f3 90bf
000007b0: 3eb0 3d4d 7263 67bf 4ace c166 98a1 4b3f
000007c0: 7d07 231c 9ee8 903f bc29 d5eb b45c 823f
000007d0: 6e4d b3d3 b31f 91bf 0d39 673f 9fd6 fcbe
000007e0: 0799 b243 a19a 2b3f 5833 691a 9ab4 62bf
000007f0: 08f7 7467 2b63 793f 04cb b34d c7db 8cbf
-0.010122733568370153 -0.007893470120509625 0.0010207491624738367 -0.011135192324279926 0.017701676156472727 -0.02640897679343706 -0.003234378675446039 0.0011038963910769705
0.005074209278332888 -0.009159247272624271 0.011342947938882124 -0.01393831043812923 -0.00566128588607568 0.00620747555279424 0.010401885647927522 -0.014040012963810978
0.026450367904151586 -0.008974915631672097 -0.013121824775277827 0.00502714891773257 -0.0034829345358145716 -0.004960523125397444 0.005956440575697195 -0.015272956904278092
-0.017021343999747023 -0.005974233651432281 0.010779017394533253 -0.005540552934127837 0.015991566845286142 0.012010147611718905 0.0028294618450748488 0.0033972385937475697
0.002820026250168557 0.0015971772868210007 -0.003662416974781795 -0.002501878332071629 -0.010699601565925821 -0.0221004278929018 0.011040706092820499 0.0015725843678529832
6.211355621786127e-05 0.0039844912285787945 -0.00828397454793649 -0.01001062213384433 -0.0028368469367815266 0.013680984817638128 -0.011687410284931263 -0.026270653568081663
-0.005214010918187526 0.01142699916235183 -0.017325440243543537 -0.011802836038228718 0.0026354674057816867 0.02569907035475335 -0.013582116685261957 -0.013969340914679591
0.0033869836883918527 0.012046744399937043 -0.006240987123257102 -0.01621394156122169 0.00433749220886346 0.006148413973029732 0.017786551265382484 0.006569471123242789
0.008280660763723795 -0.0026214514386790574 0.02441504342169468 -0.003981420105884701 -0.006119221214117702 0.018095149185186066 -0.0147423727889541 -0.01847408384527915
0.0011955692459848474 -1.7365232756954092e-05 -0.002278879815506622 0.009939297571216518 -0.009082061822885705 0.0006416712562467415 -0.0036010595263818697 -0.008912185001067508
-0.0006184008396068339 0.008525958032951027 0.021205681204305018 0.005794189828989692 -0.025108350014014517 -0.00038140085441648917 0.000498027909028325 0.009362090095799499
0.0018481030248973902 0.012530889173020766 0.0039167061561527165 0.015587980694978886 -0.004387459200482935 0.001443434672966939 0.008266415353898965 -0.005721940702934435
-0.00790012802081076 -0.006293520996866851 -0.007492156170889224 0.005225619208753272 -0.01834808029634556 -0.015559700263179072 0.018627464923572624 -0.007250967209741776
0.0020001485117174815 -0.014891464178991284 0.0009412426778927615 -0.00719006667681404 -0.01563089498160414 0.013369204375647132 0.011825657270608714 -0.0010735479071401644
0.009994190326779112 0.0190329268772716 0.007540759331580894 0.004796797395099632 0.0019894969648330952 0.006494973648592396 -0.0036391939348963654 -0.0027663586916144662
0.004508913752125149 -0.0047386487015952895 -0.003657996727935024 1.8666463497337691e-06 0.01150607550593069 -0.011326637535596476 0.007591785027052609 0.007917964128034704
0.007858120092968091 -0.00806746380209489 -0.01692681615510937 0.005597004724114222 0.00187538784413962 0.010043766347631322 -0.007005368280095384 0.007601183762563611
0.010544121122194114 -0.0009530972104935061 0.004169295032648165 0.00381966457524095 -0.008214695290296501 0.005310966022846075 0.016224983409010137 0.00022203934542636586
-0.014609249386516573 -0.006872265309140099 -0.017794294488516275 0.012902611290460646 0.007641052963280948 -0.005013692716678184 -0.014180599219689366 -0.008332949582424903
-0.0063827696569714746 0.0010940759902005842 0.0007575934319837979 0.013414319753737025 -0.006927548576980426 -0.015081878543539286 -0.01156978475142292 -0.0002302485444650096
-0.007286780669457907 -0.002920085455130258 -0.004540335803194438 0.009902384537051827 -0.005869656870923222 -0.003773420769478101 0.007172835811587757 -0.00564981911032076
0.004232123744570178 0.0033148526202175883 0.001417658589610795 -0.011343963827064898 0.01229774224521937 0.02220683796583114 8.828138267394709e-05 -0.010463548733703752
0.00029102708325022607 0.009898601405859991 -0.006151876757156072 -0.0012889918411818965 0.003406541364121413 0.012030478522059247 0.0077542373308937445 0.008168679695322622
-0.004262685566764252 0.004019189551739229 -0.007219633271251293 0.008455260998852115 0.011512196407856137 0.005533635687726227 -0.0036741058679481547 -0.0020372712804159823
0.018065162106620097 -0.0035071044462349618 0.010499941674505683 0.0033889159821852174 -0.003341364484598427 -0.013446490274694252 0.0021160038058850683 0.0009110086660612234
0.018065346714593335 -0.008601926954224983 0.022947685915477845 0.0037881052949659327 0.003778292212221578 -0.005930721344322301 0.0031470630755446867 0.004730509282332128
0.00937327291820877 -0.00978322207591943 0.014067808557880385 0.0036141552377197956 0.00608228895307312 -0.0022094226150476052 -0.009281426382790505 0.0007272462740328739
0.0018729554982321833 -0.013854282681144907 0.007932854051651252 0.009965246338965807 -0.007296646238211267 -0.010225853502720914 -0.0030296137687430102 0.00023895096986299567
-0.002641710099153342 -0.0006091783277078324 0.002214776976759162 -0.013682689387256291 -0.01253295627303265 -0.027222777409231447 0.009425452284534718 0.00015227020617449225
0.010478511314651566 -0.011377379958113923 0.00024407339533162126 0.0021482650611660127 -0.00561782494830015 -0.015534277984667928 0.01745871336135157 0.013992833412700509
-0.0038193227172536475 0.005102276451696075 -0.004847906763568931 -0.009954036030247476 0.01827261504957014 -0.016553688814058016 -0.002855036969711149 0.0008432382724223389
0.016512365786872863 0.008965886542360184 -0.016722497745673186 -2.7502410341822626e-05 0.00021060198364359508 -0.002283383352994422 0.00619809107530301 -0.014091069277559772

bh f8 [16, 1]
00000000: 0000 0000 0000 0000 0000 0000 0000 0000
00000010: 0000 0000 0000 0000 0000 0000 0000 0000
00000020: 0000 0000 0000 0000 0000 0000 0000 0000
00000030: 0000 0000 0000 0000 0000 0000 0000 0000
00000040: 0000 0000 0000 0000 0000 0000 0000 0000
00000050: 0000 0000 0000 0000 0000 0000 0000 0000
00000060: 0000 0000 0000 0000 0000 0000 0000 0000
00000070: 0000 0000 0000 0000 0000 0000 0000 0000
0.0 0.0 0.0 0.0 0.0 0.0 0.0 0.0
0.0 0.0 0.0 0.0 0.0 0.0 0.0 0.0
